7767517
995 1778
Input                    input.1                  0 1 data
Convolution              Conv_0                   1 1 data 699 0=64 1=3 4=1 5=1 6=1728
Split                    splitncnn_0              1 8 699 699_splitncnn_0 699_splitncnn_1 699_splitncnn_2 699_splitncnn_3 699_splitncnn_4 699_splitncnn_5 699_splitncnn_6 699_splitncnn_7
Convolution              Conv_1                   1 1 699_splitncnn_7 701 0=32 1=3 4=1 5=1 6=18432 9=2 -23310=1,0.2
Split                    splitncnn_1              1 4 701 701_splitncnn_0 701_splitncnn_1 701_splitncnn_2 701_splitncnn_3
Concat                   Concat_3                 2 1 699_splitncnn_6 701_splitncnn_3 702
Convolution              Conv_4                   1 1 702 704 0=32 1=3 4=1 5=1 6=27648 9=2 -23310=1,0.2
Split                    splitncnn_2              1 3 704 704_splitncnn_0 704_splitncnn_1 704_splitncnn_2
Concat                   Concat_6                 3 1 699_splitncnn_5 701_splitncnn_2 704_splitncnn_2 705
Convolution              Conv_7                   1 1 705 707 0=32 1=3 4=1 5=1 6=36864 9=2 -23310=1,0.2
Split                    splitncnn_3              1 2 707 707_splitncnn_0 707_splitncnn_1
Concat                   Concat_9                 4 1 699_splitncnn_4 701_splitncnn_1 704_splitncnn_1 707_splitncnn_1 708
Convolution              Conv_10                  1 1 708 710 0=32 1=3 4=1 5=1 6=46080 9=2 -23310=1,0.2
Concat                   Concat_12                5 1 699_splitncnn_3 701_splitncnn_0 704_splitncnn_0 707_splitncnn_0 710 711
Convolution              Conv_13                  1 1 711 712 0=64 1=3 4=1 5=1 6=110592
Eltwise                  Add_16                   2 1 712 699_splitncnn_2 715 0=1 -23301=2,0.2,1.0
Split                    splitncnn_4              1 6 715 715_splitncnn_0 715_splitncnn_1 715_splitncnn_2 715_splitncnn_3 715_splitncnn_4 715_splitncnn_5
Convolution              Conv_17                  1 1 715_splitncnn_5 717 0=32 1=3 4=1 5=1 6=18432 9=2 -23310=1,0.2
Split                    splitncnn_5              1 4 717 717_splitncnn_0 717_splitncnn_1 717_splitncnn_2 717_splitncnn_3
Concat                   Concat_19                2 1 715_splitncnn_4 717_splitncnn_3 718
Convolution              Conv_20                  1 1 718 720 0=32 1=3 4=1 5=1 6=27648 9=2 -23310=1,0.2
Split                    splitncnn_6              1 3 720 720_splitncnn_0 720_splitncnn_1 720_splitncnn_2
Concat                   Concat_22                3 1 715_splitncnn_3 717_splitncnn_2 720_splitncnn_2 721
Convolution              Conv_23                  1 1 721 723 0=32 1=3 4=1 5=1 6=36864 9=2 -23310=1,0.2
Split                    splitncnn_7              1 2 723 723_splitncnn_0 723_splitncnn_1
Concat                   Concat_25                4 1 715_splitncnn_2 717_splitncnn_1 720_splitncnn_1 723_splitncnn_1 724
Convolution              Conv_26                  1 1 724 726 0=32 1=3 4=1 5=1 6=46080 9=2 -23310=1,0.2
Concat                   Concat_28                5 1 715_splitncnn_1 717_splitncnn_0 720_splitncnn_0 723_splitncnn_0 726 727
Convolution              Conv_29                  1 1 727 728 0=64 1=3 4=1 5=1 6=110592
Eltwise                  Add_32                   2 1 728 715_splitncnn_0 731 0=1 -23301=2,0.2,1.0
Split                    splitncnn_8              1 6 731 731_splitncnn_0 731_splitncnn_1 731_splitncnn_2 731_splitncnn_3 731_splitncnn_4 731_splitncnn_5
Convolution              Conv_33                  1 1 731_splitncnn_5 733 0=32 1=3 4=1 5=1 6=18432 9=2 -23310=1,0.2
Split                    splitncnn_9              1 4 733 733_splitncnn_0 733_splitncnn_1 733_splitncnn_2 733_splitncnn_3
Concat                   Concat_35                2 1 731_splitncnn_4 733_splitncnn_3 734
Convolution              Conv_36                  1 1 734 736 0=32 1=3 4=1 5=1 6=27648 9=2 -23310=1,0.2
Split                    splitncnn_10             1 3 736 736_splitncnn_0 736_splitncnn_1 736_splitncnn_2
Concat                   Concat_38                3 1 731_splitncnn_3 733_splitncnn_2 736_splitncnn_2 737
Convolution              Conv_39                  1 1 737 739 0=32 1=3 4=1 5=1 6=36864 9=2 -23310=1,0.2
Split                    splitncnn_11             1 2 739 739_splitncnn_0 739_splitncnn_1
Concat                   Concat_41                4 1 731_splitncnn_2 733_splitncnn_1 736_splitncnn_1 739_splitncnn_1 740
Convolution              Conv_42                  1 1 740 742 0=32 1=3 4=1 5=1 6=46080 9=2 -23310=1,0.2
Concat                   Concat_44                5 1 731_splitncnn_1 733_splitncnn_0 736_splitncnn_0 739_splitncnn_0 742 743
Convolution              Conv_45                  1 1 743 744 0=64 1=3 4=1 5=1 6=110592
Eltwise                  Add_48                   2 1 744 731_splitncnn_0 747 0=1 -23301=2,0.2,1.0
Eltwise                  Add_51                   2 1 747 699_splitncnn_1 750 0=1 -23301=2,0.2,1.0
Split                    splitncnn_12             1 7 750 750_splitncnn_0 750_splitncnn_1 750_splitncnn_2 750_splitncnn_3 750_splitncnn_4 750_splitncnn_5 750_splitncnn_6
Convolution              Conv_52                  1 1 750_splitncnn_6 752 0=32 1=3 4=1 5=1 6=18432 9=2 -23310=1,0.2
Split                    splitncnn_13             1 4 752 752_splitncnn_0 752_splitncnn_1 752_splitncnn_2 752_splitncnn_3
Concat                   Concat_54                2 1 750_splitncnn_5 752_splitncnn_3 753
Convolution              Conv_55                  1 1 753 755 0=32 1=3 4=1 5=1 6=27648 9=2 -23310=1,0.2
Split                    splitncnn_14             1 3 755 755_splitncnn_0 755_splitncnn_1 755_splitncnn_2
Concat                   Concat_57                3 1 750_splitncnn_4 752_splitncnn_2 755_splitncnn_2 756
Convolution              Conv_58                  1 1 756 758 0=32 1=3 4=1 5=1 6=36864 9=2 -23310=1,0.2
Split                    splitncnn_15             1 2 758 758_splitncnn_0 758_splitncnn_1
Concat                   Concat_60                4 1 750_splitncnn_3 752_splitncnn_1 755_splitncnn_1 758_splitncnn_1 759
Convolution              Conv_61                  1 1 759 761 0=32 1=3 4=1 5=1 6=46080 9=2 -23310=1,0.2
Concat                   Concat_63                5 1 750_splitncnn_2 752_splitncnn_0 755_splitncnn_0 758_splitncnn_0 761 762
Convolution              Conv_64                  1 1 762 763 0=64 1=3 4=1 5=1 6=110592
Eltwise                  Add_67                   2 1 763 750_splitncnn_1 766 0=1 -23301=2,0.2,1.0
Split                    splitncnn_16             1 6 766 766_splitncnn_0 766_splitncnn_1 766_splitncnn_2 766_splitncnn_3 766_splitncnn_4 766_splitncnn_5
Convolution              Conv_68                  1 1 766_splitncnn_5 768 0=32 1=3 4=1 5=1 6=18432 9=2 -23310=1,0.2
Split                    splitncnn_17             1 4 768 768_splitncnn_0 768_splitncnn_1 768_splitncnn_2 768_splitncnn_3
Concat                   Concat_70                2 1 766_splitncnn_4 768_splitncnn_3 769
Convolution              Conv_71                  1 1 769 771 0=32 1=3 4=1 5=1 6=27648 9=2 -23310=1,0.2
Split                    splitncnn_18             1 3 771 771_splitncnn_0 771_splitncnn_1 771_splitncnn_2
Concat                   Concat_73                3 1 766_splitncnn_3 768_splitncnn_2 771_splitncnn_2 772
Convolution              Conv_74                  1 1 772 774 0=32 1=3 4=1 5=1 6=36864 9=2 -23310=1,0.2
Split                    splitncnn_19             1 2 774 774_splitncnn_0 774_splitncnn_1
Concat                   Concat_76                4 1 766_splitncnn_2 768_splitncnn_1 771_splitncnn_1 774_splitncnn_1 775
Convolution              Conv_77                  1 1 775 777 0=32 1=3 4=1 5=1 6=46080 9=2 -23310=1,0.2
Concat                   Concat_79                5 1 766_splitncnn_1 768_splitncnn_0 771_splitncnn_0 774_splitncnn_0 777 778
Convolution              Conv_80                  1 1 778 779 0=64 1=3 4=1 5=1 6=110592
Eltwise                  Add_83                   2 1 779 766_splitncnn_0 782 0=1 -23301=2,0.2,1.0
Split                    splitncnn_20             1 6 782 782_splitncnn_0 782_splitncnn_1 782_splitncnn_2 782_splitncnn_3 782_splitncnn_4 782_splitncnn_5
Convolution              Conv_84                  1 1 782_splitncnn_5 784 0=32 1=3 4=1 5=1 6=18432 9=2 -23310=1,0.2
Split                    splitncnn_21             1 4 784 784_splitncnn_0 784_splitncnn_1 784_splitncnn_2 784_splitncnn_3
Concat                   Concat_86                2 1 782_splitncnn_4 784_splitncnn_3 785
Convolution              Conv_87                  1 1 785 787 0=32 1=3 4=1 5=1 6=27648 9=2 -23310=1,0.2
Split                    splitncnn_22             1 3 787 787_splitncnn_0 787_splitncnn_1 787_splitncnn_2
Concat                   Concat_89                3 1 782_splitncnn_3 784_splitncnn_2 787_splitncnn_2 788
Convolution              Conv_90                  1 1 788 790 0=32 1=3 4=1 5=1 6=36864 9=2 -23310=1,0.2
Split                    splitncnn_23             1 2 790 790_splitncnn_0 790_splitncnn_1
Concat                   Concat_92                4 1 782_splitncnn_2 784_splitncnn_1 787_splitncnn_1 790_splitncnn_1 791
Convolution              Conv_93                  1 1 791 793 0=32 1=3 4=1 5=1 6=46080 9=2 -23310=1,0.2
Concat                   Concat_95                5 1 782_splitncnn_1 784_splitncnn_0 787_splitncnn_0 790_splitncnn_0 793 794
Convolution              Conv_96                  1 1 794 795 0=64 1=3 4=1 5=1 6=110592
Eltwise                  Add_99                   2 1 795 782_splitncnn_0 798 0=1 -23301=2,0.2,1.0
Eltwise                  Add_102                  2 1 798 750_splitncnn_0 801 0=1 -23301=2,0.2,1.0
Split                    splitncnn_24             1 7 801 801_splitncnn_0 801_splitncnn_1 801_splitncnn_2 801_splitncnn_3 801_splitncnn_4 801_splitncnn_5 801_splitncnn_6
Convolution              Conv_103                 1 1 801_splitncnn_6 803 0=32 1=3 4=1 5=1 6=18432 9=2 -23310=1,0.2
Split                    splitncnn_25             1 4 803 803_splitncnn_0 803_splitncnn_1 803_splitncnn_2 803_splitncnn_3
Concat                   Concat_105               2 1 801_splitncnn_5 803_splitncnn_3 804
Convolution              Conv_106                 1 1 804 806 0=32 1=3 4=1 5=1 6=27648 9=2 -23310=1,0.2
Split                    splitncnn_26             1 3 806 806_splitncnn_0 806_splitncnn_1 806_splitncnn_2
Concat                   Concat_108               3 1 801_splitncnn_4 803_splitncnn_2 806_splitncnn_2 807
Convolution              Conv_109                 1 1 807 809 0=32 1=3 4=1 5=1 6=36864 9=2 -23310=1,0.2
Split                    splitncnn_27             1 2 809 809_splitncnn_0 809_splitncnn_1
Concat                   Concat_111               4 1 801_splitncnn_3 803_splitncnn_1 806_splitncnn_1 809_splitncnn_1 810
Convolution              Conv_112                 1 1 810 812 0=32 1=3 4=1 5=1 6=46080 9=2 -23310=1,0.2
Concat                   Concat_114               5 1 801_splitncnn_2 803_splitncnn_0 806_splitncnn_0 809_splitncnn_0 812 813
Convolution              Conv_115                 1 1 813 814 0=64 1=3 4=1 5=1 6=110592
Eltwise                  Add_118                  2 1 814 801_splitncnn_1 817 0=1 -23301=2,0.2,1.0
Split                    splitncnn_28             1 6 817 817_splitncnn_0 817_splitncnn_1 817_splitncnn_2 817_splitncnn_3 817_splitncnn_4 817_splitncnn_5
Convolution              Conv_119                 1 1 817_splitncnn_5 819 0=32 1=3 4=1 5=1 6=18432 9=2 -23310=1,0.2
Split                    splitncnn_29             1 4 819 819_splitncnn_0 819_splitncnn_1 819_splitncnn_2 819_splitncnn_3
Concat                   Concat_121               2 1 817_splitncnn_4 819_splitncnn_3 820
Convolution              Conv_122                 1 1 820 822 0=32 1=3 4=1 5=1 6=27648 9=2 -23310=1,0.2
Split                    splitncnn_30             1 3 822 822_splitncnn_0 822_splitncnn_1 822_splitncnn_2
Concat                   Concat_124               3 1 817_splitncnn_3 819_splitncnn_2 822_splitncnn_2 823
Convolution              Conv_125                 1 1 823 825 0=32 1=3 4=1 5=1 6=36864 9=2 -23310=1,0.2
Split                    splitncnn_31             1 2 825 825_splitncnn_0 825_splitncnn_1
Concat                   Concat_127               4 1 817_splitncnn_2 819_splitncnn_1 822_splitncnn_1 825_splitncnn_1 826
Convolution              Conv_128                 1 1 826 828 0=32 1=3 4=1 5=1 6=46080 9=2 -23310=1,0.2
Concat                   Concat_130               5 1 817_splitncnn_1 819_splitncnn_0 822_splitncnn_0 825_splitncnn_0 828 829
Convolution              Conv_131                 1 1 829 830 0=64 1=3 4=1 5=1 6=110592
Eltwise                  Add_134                  2 1 830 817_splitncnn_0 833 0=1 -23301=2,0.2,1.0
Split                    splitncnn_32             1 6 833 833_splitncnn_0 833_splitncnn_1 833_splitncnn_2 833_splitncnn_3 833_splitncnn_4 833_splitncnn_5
Convolution              Conv_135                 1 1 833_splitncnn_5 835 0=32 1=3 4=1 5=1 6=18432 9=2 -23310=1,0.2
Split                    splitncnn_33             1 4 835 835_splitncnn_0 835_splitncnn_1 835_splitncnn_2 835_splitncnn_3
Concat                   Concat_137               2 1 833_splitncnn_4 835_splitncnn_3 836
Convolution              Conv_138                 1 1 836 838 0=32 1=3 4=1 5=1 6=27648 9=2 -23310=1,0.2
Split                    splitncnn_34             1 3 838 838_splitncnn_0 838_splitncnn_1 838_splitncnn_2
Concat                   Concat_140               3 1 833_splitncnn_3 835_splitncnn_2 838_splitncnn_2 839
Convolution              Conv_141                 1 1 839 841 0=32 1=3 4=1 5=1 6=36864 9=2 -23310=1,0.2
Split                    splitncnn_35             1 2 841 841_splitncnn_0 841_splitncnn_1
Concat                   Concat_143               4 1 833_splitncnn_2 835_splitncnn_1 838_splitncnn_1 841_splitncnn_1 842
Convolution              Conv_144                 1 1 842 844 0=32 1=3 4=1 5=1 6=46080 9=2 -23310=1,0.2
Concat                   Concat_146               5 1 833_splitncnn_1 835_splitncnn_0 838_splitncnn_0 841_splitncnn_0 844 845
Convolution              Conv_147                 1 1 845 846 0=64 1=3 4=1 5=1 6=110592
Eltwise                  Add_150                  2 1 846 833_splitncnn_0 849 0=1 -23301=2,0.2,1.0
Eltwise                  Add_153                  2 1 849 801_splitncnn_0 852 0=1 -23301=2,0.2,1.0
Split                    splitncnn_36             1 7 852 852_splitncnn_0 852_splitncnn_1 852_splitncnn_2 852_splitncnn_3 852_splitncnn_4 852_splitncnn_5 852_splitncnn_6
Convolution              Conv_154                 1 1 852_splitncnn_6 854 0=32 1=3 4=1 5=1 6=18432 9=2 -23310=1,0.2
Split                    splitncnn_37             1 4 854 854_splitncnn_0 854_splitncnn_1 854_splitncnn_2 854_splitncnn_3
Concat                   Concat_156               2 1 852_splitncnn_5 854_splitncnn_3 855
Convolution              Conv_157                 1 1 855 857 0=32 1=3 4=1 5=1 6=27648 9=2 -23310=1,0.2
Split                    splitncnn_38             1 3 857 857_splitncnn_0 857_splitncnn_1 857_splitncnn_2
Concat                   Concat_159               3 1 852_splitncnn_4 854_splitncnn_2 857_splitncnn_2 858
Convolution              Conv_160                 1 1 858 860 0=32 1=3 4=1 5=1 6=36864 9=2 -23310=1,0.2
Split                    splitncnn_39             1 2 860 860_splitncnn_0 860_splitncnn_1
Concat                   Concat_162               4 1 852_splitncnn_3 854_splitncnn_1 857_splitncnn_1 860_splitncnn_1 861
Convolution              Conv_163                 1 1 861 863 0=32 1=3 4=1 5=1 6=46080 9=2 -23310=1,0.2
Concat                   Concat_165               5 1 852_splitncnn_2 854_splitncnn_0 857_splitncnn_0 860_splitncnn_0 863 864
Convolution              Conv_166                 1 1 864 865 0=64 1=3 4=1 5=1 6=110592
Eltwise                  Add_169                  2 1 865 852_splitncnn_1 868 0=1 -23301=2,0.2,1.0
Split                    splitncnn_40             1 6 868 868_splitncnn_0 868_splitncnn_1 868_splitncnn_2 868_splitncnn_3 868_splitncnn_4 868_splitncnn_5
Convolution              Conv_170                 1 1 868_splitncnn_5 870 0=32 1=3 4=1 5=1 6=18432 9=2 -23310=1,0.2
Split                    splitncnn_41             1 4 870 870_splitncnn_0 870_splitncnn_1 870_splitncnn_2 870_splitncnn_3
Concat                   Concat_172               2 1 868_splitncnn_4 870_splitncnn_3 871
Convolution              Conv_173                 1 1 871 873 0=32 1=3 4=1 5=1 6=27648 9=2 -23310=1,0.2
Split                    splitncnn_42             1 3 873 873_splitncnn_0 873_splitncnn_1 873_splitncnn_2
Concat                   Concat_175               3 1 868_splitncnn_3 870_splitncnn_2 873_splitncnn_2 874
Convolution              Conv_176                 1 1 874 876 0=32 1=3 4=1 5=1 6=36864 9=2 -23310=1,0.2
Split                    splitncnn_43             1 2 876 876_splitncnn_0 876_splitncnn_1
Concat                   Concat_178               4 1 868_splitncnn_2 870_splitncnn_1 873_splitncnn_1 876_splitncnn_1 877
Convolution              Conv_179                 1 1 877 879 0=32 1=3 4=1 5=1 6=46080 9=2 -23310=1,0.2
Concat                   Concat_181               5 1 868_splitncnn_1 870_splitncnn_0 873_splitncnn_0 876_splitncnn_0 879 880
Convolution              Conv_182                 1 1 880 881 0=64 1=3 4=1 5=1 6=110592
Eltwise                  Add_185                  2 1 881 868_splitncnn_0 884 0=1 -23301=2,0.2,1.0
Split                    splitncnn_44             1 6 884 884_splitncnn_0 884_splitncnn_1 884_splitncnn_2 884_splitncnn_3 884_splitncnn_4 884_splitncnn_5
Convolution              Conv_186                 1 1 884_splitncnn_5 886 0=32 1=3 4=1 5=1 6=18432 9=2 -23310=1,0.2
Split                    splitncnn_45             1 4 886 886_splitncnn_0 886_splitncnn_1 886_splitncnn_2 886_splitncnn_3
Concat                   Concat_188               2 1 884_splitncnn_4 886_splitncnn_3 887
Convolution              Conv_189                 1 1 887 889 0=32 1=3 4=1 5=1 6=27648 9=2 -23310=1,0.2
Split                    splitncnn_46             1 3 889 889_splitncnn_0 889_splitncnn_1 889_splitncnn_2
Concat                   Concat_191               3 1 884_splitncnn_3 886_splitncnn_2 889_splitncnn_2 890
Convolution              Conv_192                 1 1 890 892 0=32 1=3 4=1 5=1 6=36864 9=2 -23310=1,0.2
Split                    splitncnn_47             1 2 892 892_splitncnn_0 892_splitncnn_1
Concat                   Concat_194               4 1 884_splitncnn_2 886_splitncnn_1 889_splitncnn_1 892_splitncnn_1 893
Convolution              Conv_195                 1 1 893 895 0=32 1=3 4=1 5=1 6=46080 9=2 -23310=1,0.2
Concat                   Concat_197               5 1 884_splitncnn_1 886_splitncnn_0 889_splitncnn_0 892_splitncnn_0 895 896
Convolution              Conv_198                 1 1 896 897 0=64 1=3 4=1 5=1 6=110592
Eltwise                  Add_201                  2 1 897 884_splitncnn_0 900 0=1 -23301=2,0.2,1.0
Eltwise                  Add_204                  2 1 900 852_splitncnn_0 903 0=1 -23301=2,0.2,1.0
Split                    splitncnn_48             1 7 903 903_splitncnn_0 903_splitncnn_1 903_splitncnn_2 903_splitncnn_3 903_splitncnn_4 903_splitncnn_5 903_splitncnn_6
Convolution              Conv_205                 1 1 903_splitncnn_6 905 0=32 1=3 4=1 5=1 6=18432 9=2 -23310=1,0.2
Split                    splitncnn_49             1 4 905 905_splitncnn_0 905_splitncnn_1 905_splitncnn_2 905_splitncnn_3
Concat                   Concat_207               2 1 903_splitncnn_5 905_splitncnn_3 906
Convolution              Conv_208                 1 1 906 908 0=32 1=3 4=1 5=1 6=27648 9=2 -23310=1,0.2
Split                    splitncnn_50             1 3 908 908_splitncnn_0 908_splitncnn_1 908_splitncnn_2
Concat                   Concat_210               3 1 903_splitncnn_4 905_splitncnn_2 908_splitncnn_2 909
Convolution              Conv_211                 1 1 909 911 0=32 1=3 4=1 5=1 6=36864 9=2 -23310=1,0.2
Split                    splitncnn_51             1 2 911 911_splitncnn_0 911_splitncnn_1
Concat                   Concat_213               4 1 903_splitncnn_3 905_splitncnn_1 908_splitncnn_1 911_splitncnn_1 912
Convolution              Conv_214                 1 1 912 914 0=32 1=3 4=1 5=1 6=46080 9=2 -23310=1,0.2
Concat                   Concat_216               5 1 903_splitncnn_2 905_splitncnn_0 908_splitncnn_0 911_splitncnn_0 914 915
Convolution              Conv_217                 1 1 915 916 0=64 1=3 4=1 5=1 6=110592
Eltwise                  Add_220                  2 1 916 903_splitncnn_1 919 0=1 -23301=2,0.2,1.0
Split                    splitncnn_52             1 6 919 919_splitncnn_0 919_splitncnn_1 919_splitncnn_2 919_splitncnn_3 919_splitncnn_4 919_splitncnn_5
Convolution              Conv_221                 1 1 919_splitncnn_5 921 0=32 1=3 4=1 5=1 6=18432 9=2 -23310=1,0.2
Split                    splitncnn_53             1 4 921 921_splitncnn_0 921_splitncnn_1 921_splitncnn_2 921_splitncnn_3
Concat                   Concat_223               2 1 919_splitncnn_4 921_splitncnn_3 922
Convolution              Conv_224                 1 1 922 924 0=32 1=3 4=1 5=1 6=27648 9=2 -23310=1,0.2
Split                    splitncnn_54             1 3 924 924_splitncnn_0 924_splitncnn_1 924_splitncnn_2
Concat                   Concat_226               3 1 919_splitncnn_3 921_splitncnn_2 924_splitncnn_2 925
Convolution              Conv_227                 1 1 925 927 0=32 1=3 4=1 5=1 6=36864 9=2 -23310=1,0.2
Split                    splitncnn_55             1 2 927 927_splitncnn_0 927_splitncnn_1
Concat                   Concat_229               4 1 919_splitncnn_2 921_splitncnn_1 924_splitncnn_1 927_splitncnn_1 928
Convolution              Conv_230                 1 1 928 930 0=32 1=3 4=1 5=1 6=46080 9=2 -23310=1,0.2
Concat                   Concat_232               5 1 919_splitncnn_1 921_splitncnn_0 924_splitncnn_0 927_splitncnn_0 930 931
Convolution              Conv_233                 1 1 931 932 0=64 1=3 4=1 5=1 6=110592
Eltwise                  Add_236                  2 1 932 919_splitncnn_0 935 0=1 -23301=2,0.2,1.0
Split                    splitncnn_56             1 6 935 935_splitncnn_0 935_splitncnn_1 935_splitncnn_2 935_splitncnn_3 935_splitncnn_4 935_splitncnn_5
Convolution              Conv_237                 1 1 935_splitncnn_5 937 0=32 1=3 4=1 5=1 6=18432 9=2 -23310=1,0.2
Split                    splitncnn_57             1 4 937 937_splitncnn_0 937_splitncnn_1 937_splitncnn_2 937_splitncnn_3
Concat                   Concat_239               2 1 935_splitncnn_4 937_splitncnn_3 938
Convolution              Conv_240                 1 1 938 940 0=32 1=3 4=1 5=1 6=27648 9=2 -23310=1,0.2
Split                    splitncnn_58             1 3 940 940_splitncnn_0 940_splitncnn_1 940_splitncnn_2
Concat                   Concat_242               3 1 935_splitncnn_3 937_splitncnn_2 940_splitncnn_2 941
Convolution              Conv_243                 1 1 941 943 0=32 1=3 4=1 5=1 6=36864 9=2 -23310=1,0.2
Split                    splitncnn_59             1 2 943 943_splitncnn_0 943_splitncnn_1
Concat                   Concat_245               4 1 935_splitncnn_2 937_splitncnn_1 940_splitncnn_1 943_splitncnn_1 944
Convolution              Conv_246                 1 1 944 946 0=32 1=3 4=1 5=1 6=46080 9=2 -23310=1,0.2
Concat                   Concat_248               5 1 935_splitncnn_1 937_splitncnn_0 940_splitncnn_0 943_splitncnn_0 946 947
Convolution              Conv_249                 1 1 947 948 0=64 1=3 4=1 5=1 6=110592
Eltwise                  Add_252                  2 1 948 935_splitncnn_0 951 0=1 -23301=2,0.2,1.0
Eltwise                  Add_255                  2 1 951 903_splitncnn_0 954 0=1 -23301=2,0.2,1.0
Split                    splitncnn_60             1 7 954 954_splitncnn_0 954_splitncnn_1 954_splitncnn_2 954_splitncnn_3 954_splitncnn_4 954_splitncnn_5 954_splitncnn_6
Convolution              Conv_256                 1 1 954_splitncnn_6 956 0=32 1=3 4=1 5=1 6=18432 9=2 -23310=1,0.2
Split                    splitncnn_61             1 4 956 956_splitncnn_0 956_splitncnn_1 956_splitncnn_2 956_splitncnn_3
Concat                   Concat_258               2 1 954_splitncnn_5 956_splitncnn_3 957
Convolution              Conv_259                 1 1 957 959 0=32 1=3 4=1 5=1 6=27648 9=2 -23310=1,0.2
Split                    splitncnn_62             1 3 959 959_splitncnn_0 959_splitncnn_1 959_splitncnn_2
Concat                   Concat_261               3 1 954_splitncnn_4 956_splitncnn_2 959_splitncnn_2 960
Convolution              Conv_262                 1 1 960 962 0=32 1=3 4=1 5=1 6=36864 9=2 -23310=1,0.2
Split                    splitncnn_63             1 2 962 962_splitncnn_0 962_splitncnn_1
Concat                   Concat_264               4 1 954_splitncnn_3 956_splitncnn_1 959_splitncnn_1 962_splitncnn_1 963
Convolution              Conv_265                 1 1 963 965 0=32 1=3 4=1 5=1 6=46080 9=2 -23310=1,0.2
Concat                   Concat_267               5 1 954_splitncnn_2 956_splitncnn_0 959_splitncnn_0 962_splitncnn_0 965 966
Convolution              Conv_268                 1 1 966 967 0=64 1=3 4=1 5=1 6=110592
Eltwise                  Add_271                  2 1 967 954_splitncnn_1 970 0=1 -23301=2,0.2,1.0
Split                    splitncnn_64             1 6 970 970_splitncnn_0 970_splitncnn_1 970_splitncnn_2 970_splitncnn_3 970_splitncnn_4 970_splitncnn_5
Convolution              Conv_272                 1 1 970_splitncnn_5 972 0=32 1=3 4=1 5=1 6=18432 9=2 -23310=1,0.2
Split                    splitncnn_65             1 4 972 972_splitncnn_0 972_splitncnn_1 972_splitncnn_2 972_splitncnn_3
Concat                   Concat_274               2 1 970_splitncnn_4 972_splitncnn_3 973
Convolution              Conv_275                 1 1 973 975 0=32 1=3 4=1 5=1 6=27648 9=2 -23310=1,0.2
Split                    splitncnn_66             1 3 975 975_splitncnn_0 975_splitncnn_1 975_splitncnn_2
Concat                   Concat_277               3 1 970_splitncnn_3 972_splitncnn_2 975_splitncnn_2 976
Convolution              Conv_278                 1 1 976 978 0=32 1=3 4=1 5=1 6=36864 9=2 -23310=1,0.2
Split                    splitncnn_67             1 2 978 978_splitncnn_0 978_splitncnn_1
Concat                   Concat_280               4 1 970_splitncnn_2 972_splitncnn_1 975_splitncnn_1 978_splitncnn_1 979
Convolution              Conv_281                 1 1 979 981 0=32 1=3 4=1 5=1 6=46080 9=2 -23310=1,0.2
Concat                   Concat_283               5 1 970_splitncnn_1 972_splitncnn_0 975_splitncnn_0 978_splitncnn_0 981 982
Convolution              Conv_284                 1 1 982 983 0=64 1=3 4=1 5=1 6=110592
Eltwise                  Add_287                  2 1 983 970_splitncnn_0 986 0=1 -23301=2,0.2,1.0
Split                    splitncnn_68             1 6 986 986_splitncnn_0 986_splitncnn_1 986_splitncnn_2 986_splitncnn_3 986_splitncnn_4 986_splitncnn_5
Convolution              Conv_288                 1 1 986_splitncnn_5 988 0=32 1=3 4=1 5=1 6=18432 9=2 -23310=1,0.2
Split                    splitncnn_69             1 4 988 988_splitncnn_0 988_splitncnn_1 988_splitncnn_2 988_splitncnn_3
Concat                   Concat_290               2 1 986_splitncnn_4 988_splitncnn_3 989
Convolution              Conv_291                 1 1 989 991 0=32 1=3 4=1 5=1 6=27648 9=2 -23310=1,0.2
Split                    splitncnn_70             1 3 991 991_splitncnn_0 991_splitncnn_1 991_splitncnn_2
Concat                   Concat_293               3 1 986_splitncnn_3 988_splitncnn_2 991_splitncnn_2 992
Convolution              Conv_294                 1 1 992 994 0=32 1=3 4=1 5=1 6=36864 9=2 -23310=1,0.2
Split                    splitncnn_71             1 2 994 994_splitncnn_0 994_splitncnn_1
Concat                   Concat_296               4 1 986_splitncnn_2 988_splitncnn_1 991_splitncnn_1 994_splitncnn_1 995
Convolution              Conv_297                 1 1 995 997 0=32 1=3 4=1 5=1 6=46080 9=2 -23310=1,0.2
Concat                   Concat_299               5 1 986_splitncnn_1 988_splitncnn_0 991_splitncnn_0 994_splitncnn_0 997 998
Convolution              Conv_300                 1 1 998 999 0=64 1=3 4=1 5=1 6=110592
Eltwise                  Add_303                  2 1 999 986_splitncnn_0 1002 0=1 -23301=2,0.2,1.0
Eltwise                  Add_306                  2 1 1002 954_splitncnn_0 1005 0=1 -23301=2,0.2,1.0
Split                    splitncnn_72             1 7 1005 1005_splitncnn_0 1005_splitncnn_1 1005_splitncnn_2 1005_splitncnn_3 1005_splitncnn_4 1005_splitncnn_5 1005_splitncnn_6
Convolution              Conv_307                 1 1 1005_splitncnn_6 1007 0=32 1=3 4=1 5=1 6=18432 9=2 -23310=1,0.2
Split                    splitncnn_73             1 4 1007 1007_splitncnn_0 1007_splitncnn_1 1007_splitncnn_2 1007_splitncnn_3
Concat                   Concat_309               2 1 1005_splitncnn_5 1007_splitncnn_3 1008
Convolution              Conv_310                 1 1 1008 1010 0=32 1=3 4=1 5=1 6=27648 9=2 -23310=1,0.2
Split                    splitncnn_74             1 3 1010 1010_splitncnn_0 1010_splitncnn_1 1010_splitncnn_2
Concat                   Concat_312               3 1 1005_splitncnn_4 1007_splitncnn_2 1010_splitncnn_2 1011
Convolution              Conv_313                 1 1 1011 1013 0=32 1=3 4=1 5=1 6=36864 9=2 -23310=1,0.2
Split                    splitncnn_75             1 2 1013 1013_splitncnn_0 1013_splitncnn_1
Concat                   Concat_315               4 1 1005_splitncnn_3 1007_splitncnn_1 1010_splitncnn_1 1013_splitncnn_1 1014
Convolution              Conv_316                 1 1 1014 1016 0=32 1=3 4=1 5=1 6=46080 9=2 -23310=1,0.2
Concat                   Concat_318               5 1 1005_splitncnn_2 1007_splitncnn_0 1010_splitncnn_0 1013_splitncnn_0 1016 1017
Convolution              Conv_319                 1 1 1017 1018 0=64 1=3 4=1 5=1 6=110592
Eltwise                  Add_322                  2 1 1018 1005_splitncnn_1 1021 0=1 -23301=2,0.2,1.0
Split                    splitncnn_76             1 6 1021 1021_splitncnn_0 1021_splitncnn_1 1021_splitncnn_2 1021_splitncnn_3 1021_splitncnn_4 1021_splitncnn_5
Convolution              Conv_323                 1 1 1021_splitncnn_5 1023 0=32 1=3 4=1 5=1 6=18432 9=2 -23310=1,0.2
Split                    splitncnn_77             1 4 1023 1023_splitncnn_0 1023_splitncnn_1 1023_splitncnn_2 1023_splitncnn_3
Concat                   Concat_325               2 1 1021_splitncnn_4 1023_splitncnn_3 1024
Convolution              Conv_326                 1 1 1024 1026 0=32 1=3 4=1 5=1 6=27648 9=2 -23310=1,0.2
Split                    splitncnn_78             1 3 1026 1026_splitncnn_0 1026_splitncnn_1 1026_splitncnn_2
Concat                   Concat_328               3 1 1021_splitncnn_3 1023_splitncnn_2 1026_splitncnn_2 1027
Convolution              Conv_329                 1 1 1027 1029 0=32 1=3 4=1 5=1 6=36864 9=2 -23310=1,0.2
Split                    splitncnn_79             1 2 1029 1029_splitncnn_0 1029_splitncnn_1
Concat                   Concat_331               4 1 1021_splitncnn_2 1023_splitncnn_1 1026_splitncnn_1 1029_splitncnn_1 1030
Convolution              Conv_332                 1 1 1030 1032 0=32 1=3 4=1 5=1 6=46080 9=2 -23310=1,0.2
Concat                   Concat_334               5 1 1021_splitncnn_1 1023_splitncnn_0 1026_splitncnn_0 1029_splitncnn_0 1032 1033
Convolution              Conv_335                 1 1 1033 1034 0=64 1=3 4=1 5=1 6=110592
Eltwise                  Add_338                  2 1 1034 1021_splitncnn_0 1037 0=1 -23301=2,0.2,1.0
Split                    splitncnn_80             1 6 1037 1037_splitncnn_0 1037_splitncnn_1 1037_splitncnn_2 1037_splitncnn_3 1037_splitncnn_4 1037_splitncnn_5
Convolution              Conv_339                 1 1 1037_splitncnn_5 1039 0=32 1=3 4=1 5=1 6=18432 9=2 -23310=1,0.2
Split                    splitncnn_81             1 4 1039 1039_splitncnn_0 1039_splitncnn_1 1039_splitncnn_2 1039_splitncnn_3
Concat                   Concat_341               2 1 1037_splitncnn_4 1039_splitncnn_3 1040
Convolution              Conv_342                 1 1 1040 1042 0=32 1=3 4=1 5=1 6=27648 9=2 -23310=1,0.2
Split                    splitncnn_82             1 3 1042 1042_splitncnn_0 1042_splitncnn_1 1042_splitncnn_2
Concat                   Concat_344               3 1 1037_splitncnn_3 1039_splitncnn_2 1042_splitncnn_2 1043
Convolution              Conv_345                 1 1 1043 1045 0=32 1=3 4=1 5=1 6=36864 9=2 -23310=1,0.2
Split                    splitncnn_83             1 2 1045 1045_splitncnn_0 1045_splitncnn_1
Concat                   Concat_347               4 1 1037_splitncnn_2 1039_splitncnn_1 1042_splitncnn_1 1045_splitncnn_1 1046
Convolution              Conv_348                 1 1 1046 1048 0=32 1=3 4=1 5=1 6=46080 9=2 -23310=1,0.2
Concat                   Concat_350               5 1 1037_splitncnn_1 1039_splitncnn_0 1042_splitncnn_0 1045_splitncnn_0 1048 1049
Convolution              Conv_351                 1 1 1049 1050 0=64 1=3 4=1 5=1 6=110592
Eltwise                  Add_354                  2 1 1050 1037_splitncnn_0 1053 0=1 -23301=2,0.2,1.0
Eltwise                  Add_357                  2 1 1053 1005_splitncnn_0 1056 0=1 -23301=2,0.2,1.0
Split                    splitncnn_84             1 7 1056 1056_splitncnn_0 1056_splitncnn_1 1056_splitncnn_2 1056_splitncnn_3 1056_splitncnn_4 1056_splitncnn_5 1056_splitncnn_6
Convolution              Conv_358                 1 1 1056_splitncnn_6 1058 0=32 1=3 4=1 5=1 6=18432 9=2 -23310=1,0.2
Split                    splitncnn_85             1 4 1058 1058_splitncnn_0 1058_splitncnn_1 1058_splitncnn_2 1058_splitncnn_3
Concat                   Concat_360               2 1 1056_splitncnn_5 1058_splitncnn_3 1059
Convolution              Conv_361                 1 1 1059 1061 0=32 1=3 4=1 5=1 6=27648 9=2 -23310=1,0.2
Split                    splitncnn_86             1 3 1061 1061_splitncnn_0 1061_splitncnn_1 1061_splitncnn_2
Concat                   Concat_363               3 1 1056_splitncnn_4 1058_splitncnn_2 1061_splitncnn_2 1062
Convolution              Conv_364                 1 1 1062 1064 0=32 1=3 4=1 5=1 6=36864 9=2 -23310=1,0.2
Split                    splitncnn_87             1 2 1064 1064_splitncnn_0 1064_splitncnn_1
Concat                   Concat_366               4 1 1056_splitncnn_3 1058_splitncnn_1 1061_splitncnn_1 1064_splitncnn_1 1065
Convolution              Conv_367                 1 1 1065 1067 0=32 1=3 4=1 5=1 6=46080 9=2 -23310=1,0.2
Concat                   Concat_369               5 1 1056_splitncnn_2 1058_splitncnn_0 1061_splitncnn_0 1064_splitncnn_0 1067 1068
Convolution              Conv_370                 1 1 1068 1069 0=64 1=3 4=1 5=1 6=110592
Eltwise                  Add_373                  2 1 1069 1056_splitncnn_1 1072 0=1 -23301=2,0.2,1.0
Split                    splitncnn_88             1 6 1072 1072_splitncnn_0 1072_splitncnn_1 1072_splitncnn_2 1072_splitncnn_3 1072_splitncnn_4 1072_splitncnn_5
Convolution              Conv_374                 1 1 1072_splitncnn_5 1074 0=32 1=3 4=1 5=1 6=18432 9=2 -23310=1,0.2
Split                    splitncnn_89             1 4 1074 1074_splitncnn_0 1074_splitncnn_1 1074_splitncnn_2 1074_splitncnn_3
Concat                   Concat_376               2 1 1072_splitncnn_4 1074_splitncnn_3 1075
Convolution              Conv_377                 1 1 1075 1077 0=32 1=3 4=1 5=1 6=27648 9=2 -23310=1,0.2
Split                    splitncnn_90             1 3 1077 1077_splitncnn_0 1077_splitncnn_1 1077_splitncnn_2
Concat                   Concat_379               3 1 1072_splitncnn_3 1074_splitncnn_2 1077_splitncnn_2 1078
Convolution              Conv_380                 1 1 1078 1080 0=32 1=3 4=1 5=1 6=36864 9=2 -23310=1,0.2
Split                    splitncnn_91             1 2 1080 1080_splitncnn_0 1080_splitncnn_1
Concat                   Concat_382               4 1 1072_splitncnn_2 1074_splitncnn_1 1077_splitncnn_1 1080_splitncnn_1 1081
Convolution              Conv_383                 1 1 1081 1083 0=32 1=3 4=1 5=1 6=46080 9=2 -23310=1,0.2
Concat                   Concat_385               5 1 1072_splitncnn_1 1074_splitncnn_0 1077_splitncnn_0 1080_splitncnn_0 1083 1084
Convolution              Conv_386                 1 1 1084 1085 0=64 1=3 4=1 5=1 6=110592
Eltwise                  Add_389                  2 1 1085 1072_splitncnn_0 1088 0=1 -23301=2,0.2,1.0
Split                    splitncnn_92             1 6 1088 1088_splitncnn_0 1088_splitncnn_1 1088_splitncnn_2 1088_splitncnn_3 1088_splitncnn_4 1088_splitncnn_5
Convolution              Conv_390                 1 1 1088_splitncnn_5 1090 0=32 1=3 4=1 5=1 6=18432 9=2 -23310=1,0.2
Split                    splitncnn_93             1 4 1090 1090_splitncnn_0 1090_splitncnn_1 1090_splitncnn_2 1090_splitncnn_3
Concat                   Concat_392               2 1 1088_splitncnn_4 1090_splitncnn_3 1091
Convolution              Conv_393                 1 1 1091 1093 0=32 1=3 4=1 5=1 6=27648 9=2 -23310=1,0.2
Split                    splitncnn_94             1 3 1093 1093_splitncnn_0 1093_splitncnn_1 1093_splitncnn_2
Concat                   Concat_395               3 1 1088_splitncnn_3 1090_splitncnn_2 1093_splitncnn_2 1094
Convolution              Conv_396                 1 1 1094 1096 0=32 1=3 4=1 5=1 6=36864 9=2 -23310=1,0.2
Split                    splitncnn_95             1 2 1096 1096_splitncnn_0 1096_splitncnn_1
Concat                   Concat_398               4 1 1088_splitncnn_2 1090_splitncnn_1 1093_splitncnn_1 1096_splitncnn_1 1097
Convolution              Conv_399                 1 1 1097 1099 0=32 1=3 4=1 5=1 6=46080 9=2 -23310=1,0.2
Concat                   Concat_401               5 1 1088_splitncnn_1 1090_splitncnn_0 1093_splitncnn_0 1096_splitncnn_0 1099 1100
Convolution              Conv_402                 1 1 1100 1101 0=64 1=3 4=1 5=1 6=110592
Eltwise                  Add_405                  2 1 1101 1088_splitncnn_0 1104 0=1 -23301=2,0.2,1.0
Eltwise                  Add_408                  2 1 1104 1056_splitncnn_0 1107 0=1 -23301=2,0.2,1.0
Split                    splitncnn_96             1 7 1107 1107_splitncnn_0 1107_splitncnn_1 1107_splitncnn_2 1107_splitncnn_3 1107_splitncnn_4 1107_splitncnn_5 1107_splitncnn_6
Convolution              Conv_409                 1 1 1107_splitncnn_6 1109 0=32 1=3 4=1 5=1 6=18432 9=2 -23310=1,0.2
Split                    splitncnn_97             1 4 1109 1109_splitncnn_0 1109_splitncnn_1 1109_splitncnn_2 1109_splitncnn_3
Concat                   Concat_411               2 1 1107_splitncnn_5 1109_splitncnn_3 1110
Convolution              Conv_412                 1 1 1110 1112 0=32 1=3 4=1 5=1 6=27648 9=2 -23310=1,0.2
Split                    splitncnn_98             1 3 1112 1112_splitncnn_0 1112_splitncnn_1 1112_splitncnn_2
Concat                   Concat_414               3 1 1107_splitncnn_4 1109_splitncnn_2 1112_splitncnn_2 1113
Convolution              Conv_415                 1 1 1113 1115 0=32 1=3 4=1 5=1 6=36864 9=2 -23310=1,0.2
Split                    splitncnn_99             1 2 1115 1115_splitncnn_0 1115_splitncnn_1
Concat                   Concat_417               4 1 1107_splitncnn_3 1109_splitncnn_1 1112_splitncnn_1 1115_splitncnn_1 1116
Convolution              Conv_418                 1 1 1116 1118 0=32 1=3 4=1 5=1 6=46080 9=2 -23310=1,0.2
Concat                   Concat_420               5 1 1107_splitncnn_2 1109_splitncnn_0 1112_splitncnn_0 1115_splitncnn_0 1118 1119
Convolution              Conv_421                 1 1 1119 1120 0=64 1=3 4=1 5=1 6=110592
Eltwise                  Add_424                  2 1 1120 1107_splitncnn_1 1123 0=1 -23301=2,0.2,1.0
Split                    splitncnn_100            1 6 1123 1123_splitncnn_0 1123_splitncnn_1 1123_splitncnn_2 1123_splitncnn_3 1123_splitncnn_4 1123_splitncnn_5
Convolution              Conv_425                 1 1 1123_splitncnn_5 1125 0=32 1=3 4=1 5=1 6=18432 9=2 -23310=1,0.2
Split                    splitncnn_101            1 4 1125 1125_splitncnn_0 1125_splitncnn_1 1125_splitncnn_2 1125_splitncnn_3
Concat                   Concat_427               2 1 1123_splitncnn_4 1125_splitncnn_3 1126
Convolution              Conv_428                 1 1 1126 1128 0=32 1=3 4=1 5=1 6=27648 9=2 -23310=1,0.2
Split                    splitncnn_102            1 3 1128 1128_splitncnn_0 1128_splitncnn_1 1128_splitncnn_2
Concat                   Concat_430               3 1 1123_splitncnn_3 1125_splitncnn_2 1128_splitncnn_2 1129
Convolution              Conv_431                 1 1 1129 1131 0=32 1=3 4=1 5=1 6=36864 9=2 -23310=1,0.2
Split                    splitncnn_103            1 2 1131 1131_splitncnn_0 1131_splitncnn_1
Concat                   Concat_433               4 1 1123_splitncnn_2 1125_splitncnn_1 1128_splitncnn_1 1131_splitncnn_1 1132
Convolution              Conv_434                 1 1 1132 1134 0=32 1=3 4=1 5=1 6=46080 9=2 -23310=1,0.2
Concat                   Concat_436               5 1 1123_splitncnn_1 1125_splitncnn_0 1128_splitncnn_0 1131_splitncnn_0 1134 1135
Convolution              Conv_437                 1 1 1135 1136 0=64 1=3 4=1 5=1 6=110592
Eltwise                  Add_440                  2 1 1136 1123_splitncnn_0 1139 0=1 -23301=2,0.2,1.0
Split                    splitncnn_104            1 6 1139 1139_splitncnn_0 1139_splitncnn_1 1139_splitncnn_2 1139_splitncnn_3 1139_splitncnn_4 1139_splitncnn_5
Convolution              Conv_441                 1 1 1139_splitncnn_5 1141 0=32 1=3 4=1 5=1 6=18432 9=2 -23310=1,0.2
Split                    splitncnn_105            1 4 1141 1141_splitncnn_0 1141_splitncnn_1 1141_splitncnn_2 1141_splitncnn_3
Concat                   Concat_443               2 1 1139_splitncnn_4 1141_splitncnn_3 1142
Convolution              Conv_444                 1 1 1142 1144 0=32 1=3 4=1 5=1 6=27648 9=2 -23310=1,0.2
Split                    splitncnn_106            1 3 1144 1144_splitncnn_0 1144_splitncnn_1 1144_splitncnn_2
Concat                   Concat_446               3 1 1139_splitncnn_3 1141_splitncnn_2 1144_splitncnn_2 1145
Convolution              Conv_447                 1 1 1145 1147 0=32 1=3 4=1 5=1 6=36864 9=2 -23310=1,0.2
Split                    splitncnn_107            1 2 1147 1147_splitncnn_0 1147_splitncnn_1
Concat                   Concat_449               4 1 1139_splitncnn_2 1141_splitncnn_1 1144_splitncnn_1 1147_splitncnn_1 1148
Convolution              Conv_450                 1 1 1148 1150 0=32 1=3 4=1 5=1 6=46080 9=2 -23310=1,0.2
Concat                   Concat_452               5 1 1139_splitncnn_1 1141_splitncnn_0 1144_splitncnn_0 1147_splitncnn_0 1150 1151
Convolution              Conv_453                 1 1 1151 1152 0=64 1=3 4=1 5=1 6=110592
Eltwise                  Add_456                  2 1 1152 1139_splitncnn_0 1155 0=1 -23301=2,0.2,1.0
Eltwise                  Add_459                  2 1 1155 1107_splitncnn_0 1158 0=1 -23301=2,0.2,1.0
Split                    splitncnn_108            1 7 1158 1158_splitncnn_0 1158_splitncnn_1 1158_splitncnn_2 1158_splitncnn_3 1158_splitncnn_4 1158_splitncnn_5 1158_splitncnn_6
Convolution              Conv_460                 1 1 1158_splitncnn_6 1160 0=32 1=3 4=1 5=1 6=18432 9=2 -23310=1,0.2
Split                    splitncnn_109            1 4 1160 1160_splitncnn_0 1160_splitncnn_1 1160_splitncnn_2 1160_splitncnn_3
Concat                   Concat_462               2 1 1158_splitncnn_5 1160_splitncnn_3 1161
Convolution              Conv_463                 1 1 1161 1163 0=32 1=3 4=1 5=1 6=27648 9=2 -23310=1,0.2
Split                    splitncnn_110            1 3 1163 1163_splitncnn_0 1163_splitncnn_1 1163_splitncnn_2
Concat                   Concat_465               3 1 1158_splitncnn_4 1160_splitncnn_2 1163_splitncnn_2 1164
Convolution              Conv_466                 1 1 1164 1166 0=32 1=3 4=1 5=1 6=36864 9=2 -23310=1,0.2
Split                    splitncnn_111            1 2 1166 1166_splitncnn_0 1166_splitncnn_1
Concat                   Concat_468               4 1 1158_splitncnn_3 1160_splitncnn_1 1163_splitncnn_1 1166_splitncnn_1 1167
Convolution              Conv_469                 1 1 1167 1169 0=32 1=3 4=1 5=1 6=46080 9=2 -23310=1,0.2
Concat                   Concat_471               5 1 1158_splitncnn_2 1160_splitncnn_0 1163_splitncnn_0 1166_splitncnn_0 1169 1170
Convolution              Conv_472                 1 1 1170 1171 0=64 1=3 4=1 5=1 6=110592
Eltwise                  Add_475                  2 1 1171 1158_splitncnn_1 1174 0=1 -23301=2,0.2,1.0
Split                    splitncnn_112            1 6 1174 1174_splitncnn_0 1174_splitncnn_1 1174_splitncnn_2 1174_splitncnn_3 1174_splitncnn_4 1174_splitncnn_5
Convolution              Conv_476                 1 1 1174_splitncnn_5 1176 0=32 1=3 4=1 5=1 6=18432 9=2 -23310=1,0.2
Split                    splitncnn_113            1 4 1176 1176_splitncnn_0 1176_splitncnn_1 1176_splitncnn_2 1176_splitncnn_3
Concat                   Concat_478               2 1 1174_splitncnn_4 1176_splitncnn_3 1177
Convolution              Conv_479                 1 1 1177 1179 0=32 1=3 4=1 5=1 6=27648 9=2 -23310=1,0.2
Split                    splitncnn_114            1 3 1179 1179_splitncnn_0 1179_splitncnn_1 1179_splitncnn_2
Concat                   Concat_481               3 1 1174_splitncnn_3 1176_splitncnn_2 1179_splitncnn_2 1180
Convolution              Conv_482                 1 1 1180 1182 0=32 1=3 4=1 5=1 6=36864 9=2 -23310=1,0.2
Split                    splitncnn_115            1 2 1182 1182_splitncnn_0 1182_splitncnn_1
Concat                   Concat_484               4 1 1174_splitncnn_2 1176_splitncnn_1 1179_splitncnn_1 1182_splitncnn_1 1183
Convolution              Conv_485                 1 1 1183 1185 0=32 1=3 4=1 5=1 6=46080 9=2 -23310=1,0.2
Concat                   Concat_487               5 1 1174_splitncnn_1 1176_splitncnn_0 1179_splitncnn_0 1182_splitncnn_0 1185 1186
Convolution              Conv_488                 1 1 1186 1187 0=64 1=3 4=1 5=1 6=110592
Eltwise                  Add_491                  2 1 1187 1174_splitncnn_0 1190 0=1 -23301=2,0.2,1.0
Split                    splitncnn_116            1 6 1190 1190_splitncnn_0 1190_splitncnn_1 1190_splitncnn_2 1190_splitncnn_3 1190_splitncnn_4 1190_splitncnn_5
Convolution              Conv_492                 1 1 1190_splitncnn_5 1192 0=32 1=3 4=1 5=1 6=18432 9=2 -23310=1,0.2
Split                    splitncnn_117            1 4 1192 1192_splitncnn_0 1192_splitncnn_1 1192_splitncnn_2 1192_splitncnn_3
Concat                   Concat_494               2 1 1190_splitncnn_4 1192_splitncnn_3 1193
Convolution              Conv_495                 1 1 1193 1195 0=32 1=3 4=1 5=1 6=27648 9=2 -23310=1,0.2
Split                    splitncnn_118            1 3 1195 1195_splitncnn_0 1195_splitncnn_1 1195_splitncnn_2
Concat                   Concat_497               3 1 1190_splitncnn_3 1192_splitncnn_2 1195_splitncnn_2 1196
Convolution              Conv_498                 1 1 1196 1198 0=32 1=3 4=1 5=1 6=36864 9=2 -23310=1,0.2
Split                    splitncnn_119            1 2 1198 1198_splitncnn_0 1198_splitncnn_1
Concat                   Concat_500               4 1 1190_splitncnn_2 1192_splitncnn_1 1195_splitncnn_1 1198_splitncnn_1 1199
Convolution              Conv_501                 1 1 1199 1201 0=32 1=3 4=1 5=1 6=46080 9=2 -23310=1,0.2
Concat                   Concat_503               5 1 1190_splitncnn_1 1192_splitncnn_0 1195_splitncnn_0 1198_splitncnn_0 1201 1202
Convolution              Conv_504                 1 1 1202 1203 0=64 1=3 4=1 5=1 6=110592
Eltwise                  Add_507                  2 1 1203 1190_splitncnn_0 1206 0=1 -23301=2,0.2,1.0
Eltwise                  Add_510                  2 1 1206 1158_splitncnn_0 1209 0=1 -23301=2,0.2,1.0
Split                    splitncnn_120            1 7 1209 1209_splitncnn_0 1209_splitncnn_1 1209_splitncnn_2 1209_splitncnn_3 1209_splitncnn_4 1209_splitncnn_5 1209_splitncnn_6
Convolution              Conv_511                 1 1 1209_splitncnn_6 1211 0=32 1=3 4=1 5=1 6=18432 9=2 -23310=1,0.2
Split                    splitncnn_121            1 4 1211 1211_splitncnn_0 1211_splitncnn_1 1211_splitncnn_2 1211_splitncnn_3
Concat                   Concat_513               2 1 1209_splitncnn_5 1211_splitncnn_3 1212
Convolution              Conv_514                 1 1 1212 1214 0=32 1=3 4=1 5=1 6=27648 9=2 -23310=1,0.2
Split                    splitncnn_122            1 3 1214 1214_splitncnn_0 1214_splitncnn_1 1214_splitncnn_2
Concat                   Concat_516               3 1 1209_splitncnn_4 1211_splitncnn_2 1214_splitncnn_2 1215
Convolution              Conv_517                 1 1 1215 1217 0=32 1=3 4=1 5=1 6=36864 9=2 -23310=1,0.2
Split                    splitncnn_123            1 2 1217 1217_splitncnn_0 1217_splitncnn_1
Concat                   Concat_519               4 1 1209_splitncnn_3 1211_splitncnn_1 1214_splitncnn_1 1217_splitncnn_1 1218
Convolution              Conv_520                 1 1 1218 1220 0=32 1=3 4=1 5=1 6=46080 9=2 -23310=1,0.2
Concat                   Concat_522               5 1 1209_splitncnn_2 1211_splitncnn_0 1214_splitncnn_0 1217_splitncnn_0 1220 1221
Convolution              Conv_523                 1 1 1221 1222 0=64 1=3 4=1 5=1 6=110592
Eltwise                  Add_526                  2 1 1222 1209_splitncnn_1 1225 0=1 -23301=2,0.2,1.0
Split                    splitncnn_124            1 6 1225 1225_splitncnn_0 1225_splitncnn_1 1225_splitncnn_2 1225_splitncnn_3 1225_splitncnn_4 1225_splitncnn_5
Convolution              Conv_527                 1 1 1225_splitncnn_5 1227 0=32 1=3 4=1 5=1 6=18432 9=2 -23310=1,0.2
Split                    splitncnn_125            1 4 1227 1227_splitncnn_0 1227_splitncnn_1 1227_splitncnn_2 1227_splitncnn_3
Concat                   Concat_529               2 1 1225_splitncnn_4 1227_splitncnn_3 1228
Convolution              Conv_530                 1 1 1228 1230 0=32 1=3 4=1 5=1 6=27648 9=2 -23310=1,0.2
Split                    splitncnn_126            1 3 1230 1230_splitncnn_0 1230_splitncnn_1 1230_splitncnn_2
Concat                   Concat_532               3 1 1225_splitncnn_3 1227_splitncnn_2 1230_splitncnn_2 1231
Convolution              Conv_533                 1 1 1231 1233 0=32 1=3 4=1 5=1 6=36864 9=2 -23310=1,0.2
Split                    splitncnn_127            1 2 1233 1233_splitncnn_0 1233_splitncnn_1
Concat                   Concat_535               4 1 1225_splitncnn_2 1227_splitncnn_1 1230_splitncnn_1 1233_splitncnn_1 1234
Convolution              Conv_536                 1 1 1234 1236 0=32 1=3 4=1 5=1 6=46080 9=2 -23310=1,0.2
Concat                   Concat_538               5 1 1225_splitncnn_1 1227_splitncnn_0 1230_splitncnn_0 1233_splitncnn_0 1236 1237
Convolution              Conv_539                 1 1 1237 1238 0=64 1=3 4=1 5=1 6=110592
Eltwise                  Add_542                  2 1 1238 1225_splitncnn_0 1241 0=1 -23301=2,0.2,1.0
Split                    splitncnn_128            1 6 1241 1241_splitncnn_0 1241_splitncnn_1 1241_splitncnn_2 1241_splitncnn_3 1241_splitncnn_4 1241_splitncnn_5
Convolution              Conv_543                 1 1 1241_splitncnn_5 1243 0=32 1=3 4=1 5=1 6=18432 9=2 -23310=1,0.2
Split                    splitncnn_129            1 4 1243 1243_splitncnn_0 1243_splitncnn_1 1243_splitncnn_2 1243_splitncnn_3
Concat                   Concat_545               2 1 1241_splitncnn_4 1243_splitncnn_3 1244
Convolution              Conv_546                 1 1 1244 1246 0=32 1=3 4=1 5=1 6=27648 9=2 -23310=1,0.2
Split                    splitncnn_130            1 3 1246 1246_splitncnn_0 1246_splitncnn_1 1246_splitncnn_2
Concat                   Concat_548               3 1 1241_splitncnn_3 1243_splitncnn_2 1246_splitncnn_2 1247
Convolution              Conv_549                 1 1 1247 1249 0=32 1=3 4=1 5=1 6=36864 9=2 -23310=1,0.2
Split                    splitncnn_131            1 2 1249 1249_splitncnn_0 1249_splitncnn_1
Concat                   Concat_551               4 1 1241_splitncnn_2 1243_splitncnn_1 1246_splitncnn_1 1249_splitncnn_1 1250
Convolution              Conv_552                 1 1 1250 1252 0=32 1=3 4=1 5=1 6=46080 9=2 -23310=1,0.2
Concat                   Concat_554               5 1 1241_splitncnn_1 1243_splitncnn_0 1246_splitncnn_0 1249_splitncnn_0 1252 1253
Convolution              Conv_555                 1 1 1253 1254 0=64 1=3 4=1 5=1 6=110592
Eltwise                  Add_558                  2 1 1254 1241_splitncnn_0 1257 0=1 -23301=2,0.2,1.0
Eltwise                  Add_561                  2 1 1257 1209_splitncnn_0 1260 0=1 -23301=2,0.2,1.0
Split                    splitncnn_132            1 7 1260 1260_splitncnn_0 1260_splitncnn_1 1260_splitncnn_2 1260_splitncnn_3 1260_splitncnn_4 1260_splitncnn_5 1260_splitncnn_6
Convolution              Conv_562                 1 1 1260_splitncnn_6 1262 0=32 1=3 4=1 5=1 6=18432 9=2 -23310=1,0.2
Split                    splitncnn_133            1 4 1262 1262_splitncnn_0 1262_splitncnn_1 1262_splitncnn_2 1262_splitncnn_3
Concat                   Concat_564               2 1 1260_splitncnn_5 1262_splitncnn_3 1263
Convolution              Conv_565                 1 1 1263 1265 0=32 1=3 4=1 5=1 6=27648 9=2 -23310=1,0.2
Split                    splitncnn_134            1 3 1265 1265_splitncnn_0 1265_splitncnn_1 1265_splitncnn_2
Concat                   Concat_567               3 1 1260_splitncnn_4 1262_splitncnn_2 1265_splitncnn_2 1266
Convolution              Conv_568                 1 1 1266 1268 0=32 1=3 4=1 5=1 6=36864 9=2 -23310=1,0.2
Split                    splitncnn_135            1 2 1268 1268_splitncnn_0 1268_splitncnn_1
Concat                   Concat_570               4 1 1260_splitncnn_3 1262_splitncnn_1 1265_splitncnn_1 1268_splitncnn_1 1269
Convolution              Conv_571                 1 1 1269 1271 0=32 1=3 4=1 5=1 6=46080 9=2 -23310=1,0.2
Concat                   Concat_573               5 1 1260_splitncnn_2 1262_splitncnn_0 1265_splitncnn_0 1268_splitncnn_0 1271 1272
Convolution              Conv_574                 1 1 1272 1273 0=64 1=3 4=1 5=1 6=110592
Eltwise                  Add_577                  2 1 1273 1260_splitncnn_1 1276 0=1 -23301=2,0.2,1.0
Split                    splitncnn_136            1 6 1276 1276_splitncnn_0 1276_splitncnn_1 1276_splitncnn_2 1276_splitncnn_3 1276_splitncnn_4 1276_splitncnn_5
Convolution              Conv_578                 1 1 1276_splitncnn_5 1278 0=32 1=3 4=1 5=1 6=18432 9=2 -23310=1,0.2
Split                    splitncnn_137            1 4 1278 1278_splitncnn_0 1278_splitncnn_1 1278_splitncnn_2 1278_splitncnn_3
Concat                   Concat_580               2 1 1276_splitncnn_4 1278_splitncnn_3 1279
Convolution              Conv_581                 1 1 1279 1281 0=32 1=3 4=1 5=1 6=27648 9=2 -23310=1,0.2
Split                    splitncnn_138            1 3 1281 1281_splitncnn_0 1281_splitncnn_1 1281_splitncnn_2
Concat                   Concat_583               3 1 1276_splitncnn_3 1278_splitncnn_2 1281_splitncnn_2 1282
Convolution              Conv_584                 1 1 1282 1284 0=32 1=3 4=1 5=1 6=36864 9=2 -23310=1,0.2
Split                    splitncnn_139            1 2 1284 1284_splitncnn_0 1284_splitncnn_1
Concat                   Concat_586               4 1 1276_splitncnn_2 1278_splitncnn_1 1281_splitncnn_1 1284_splitncnn_1 1285
Convolution              Conv_587                 1 1 1285 1287 0=32 1=3 4=1 5=1 6=46080 9=2 -23310=1,0.2
Concat                   Concat_589               5 1 1276_splitncnn_1 1278_splitncnn_0 1281_splitncnn_0 1284_splitncnn_0 1287 1288
Convolution              Conv_590                 1 1 1288 1289 0=64 1=3 4=1 5=1 6=110592
Eltwise                  Add_593                  2 1 1289 1276_splitncnn_0 1292 0=1 -23301=2,0.2,1.0
Split                    splitncnn_140            1 6 1292 1292_splitncnn_0 1292_splitncnn_1 1292_splitncnn_2 1292_splitncnn_3 1292_splitncnn_4 1292_splitncnn_5
Convolution              Conv_594                 1 1 1292_splitncnn_5 1294 0=32 1=3 4=1 5=1 6=18432 9=2 -23310=1,0.2
Split                    splitncnn_141            1 4 1294 1294_splitncnn_0 1294_splitncnn_1 1294_splitncnn_2 1294_splitncnn_3
Concat                   Concat_596               2 1 1292_splitncnn_4 1294_splitncnn_3 1295
Convolution              Conv_597                 1 1 1295 1297 0=32 1=3 4=1 5=1 6=27648 9=2 -23310=1,0.2
Split                    splitncnn_142            1 3 1297 1297_splitncnn_0 1297_splitncnn_1 1297_splitncnn_2
Concat                   Concat_599               3 1 1292_splitncnn_3 1294_splitncnn_2 1297_splitncnn_2 1298
Convolution              Conv_600                 1 1 1298 1300 0=32 1=3 4=1 5=1 6=36864 9=2 -23310=1,0.2
Split                    splitncnn_143            1 2 1300 1300_splitncnn_0 1300_splitncnn_1
Concat                   Concat_602               4 1 1292_splitncnn_2 1294_splitncnn_1 1297_splitncnn_1 1300_splitncnn_1 1301
Convolution              Conv_603                 1 1 1301 1303 0=32 1=3 4=1 5=1 6=46080 9=2 -23310=1,0.2
Concat                   Concat_605               5 1 1292_splitncnn_1 1294_splitncnn_0 1297_splitncnn_0 1300_splitncnn_0 1303 1304
Convolution              Conv_606                 1 1 1304 1305 0=64 1=3 4=1 5=1 6=110592
Eltwise                  Add_609                  2 1 1305 1292_splitncnn_0 1308 0=1 -23301=2,0.2,1.0
Eltwise                  Add_612                  2 1 1308 1260_splitncnn_0 1311 0=1 -23301=2,0.2,1.0
Split                    splitncnn_144            1 7 1311 1311_splitncnn_0 1311_splitncnn_1 1311_splitncnn_2 1311_splitncnn_3 1311_splitncnn_4 1311_splitncnn_5 1311_splitncnn_6
Convolution              Conv_613                 1 1 1311_splitncnn_6 1313 0=32 1=3 4=1 5=1 6=18432 9=2 -23310=1,0.2
Split                    splitncnn_145            1 4 1313 1313_splitncnn_0 1313_splitncnn_1 1313_splitncnn_2 1313_splitncnn_3
Concat                   Concat_615               2 1 1311_splitncnn_5 1313_splitncnn_3 1314
Convolution              Conv_616                 1 1 1314 1316 0=32 1=3 4=1 5=1 6=27648 9=2 -23310=1,0.2
Split                    splitncnn_146            1 3 1316 1316_splitncnn_0 1316_splitncnn_1 1316_splitncnn_2
Concat                   Concat_618               3 1 1311_splitncnn_4 1313_splitncnn_2 1316_splitncnn_2 1317
Convolution              Conv_619                 1 1 1317 1319 0=32 1=3 4=1 5=1 6=36864 9=2 -23310=1,0.2
Split                    splitncnn_147            1 2 1319 1319_splitncnn_0 1319_splitncnn_1
Concat                   Concat_621               4 1 1311_splitncnn_3 1313_splitncnn_1 1316_splitncnn_1 1319_splitncnn_1 1320
Convolution              Conv_622                 1 1 1320 1322 0=32 1=3 4=1 5=1 6=46080 9=2 -23310=1,0.2
Concat                   Concat_624               5 1 1311_splitncnn_2 1313_splitncnn_0 1316_splitncnn_0 1319_splitncnn_0 1322 1323
Convolution              Conv_625                 1 1 1323 1324 0=64 1=3 4=1 5=1 6=110592
Eltwise                  Add_628                  2 1 1324 1311_splitncnn_1 1327 0=1 -23301=2,0.2,1.0
Split                    splitncnn_148            1 6 1327 1327_splitncnn_0 1327_splitncnn_1 1327_splitncnn_2 1327_splitncnn_3 1327_splitncnn_4 1327_splitncnn_5
Convolution              Conv_629                 1 1 1327_splitncnn_5 1329 0=32 1=3 4=1 5=1 6=18432 9=2 -23310=1,0.2
Split                    splitncnn_149            1 4 1329 1329_splitncnn_0 1329_splitncnn_1 1329_splitncnn_2 1329_splitncnn_3
Concat                   Concat_631               2 1 1327_splitncnn_4 1329_splitncnn_3 1330
Convolution              Conv_632                 1 1 1330 1332 0=32 1=3 4=1 5=1 6=27648 9=2 -23310=1,0.2
Split                    splitncnn_150            1 3 1332 1332_splitncnn_0 1332_splitncnn_1 1332_splitncnn_2
Concat                   Concat_634               3 1 1327_splitncnn_3 1329_splitncnn_2 1332_splitncnn_2 1333
Convolution              Conv_635                 1 1 1333 1335 0=32 1=3 4=1 5=1 6=36864 9=2 -23310=1,0.2
Split                    splitncnn_151            1 2 1335 1335_splitncnn_0 1335_splitncnn_1
Concat                   Concat_637               4 1 1327_splitncnn_2 1329_splitncnn_1 1332_splitncnn_1 1335_splitncnn_1 1336
Convolution              Conv_638                 1 1 1336 1338 0=32 1=3 4=1 5=1 6=46080 9=2 -23310=1,0.2
Concat                   Concat_640               5 1 1327_splitncnn_1 1329_splitncnn_0 1332_splitncnn_0 1335_splitncnn_0 1338 1339
Convolution              Conv_641                 1 1 1339 1340 0=64 1=3 4=1 5=1 6=110592
Eltwise                  Add_644                  2 1 1340 1327_splitncnn_0 1343 0=1 -23301=2,0.2,1.0
Split                    splitncnn_152            1 6 1343 1343_splitncnn_0 1343_splitncnn_1 1343_splitncnn_2 1343_splitncnn_3 1343_splitncnn_4 1343_splitncnn_5
Convolution              Conv_645                 1 1 1343_splitncnn_5 1345 0=32 1=3 4=1 5=1 6=18432 9=2 -23310=1,0.2
Split                    splitncnn_153            1 4 1345 1345_splitncnn_0 1345_splitncnn_1 1345_splitncnn_2 1345_splitncnn_3
Concat                   Concat_647               2 1 1343_splitncnn_4 1345_splitncnn_3 1346
Convolution              Conv_648                 1 1 1346 1348 0=32 1=3 4=1 5=1 6=27648 9=2 -23310=1,0.2
Split                    splitncnn_154            1 3 1348 1348_splitncnn_0 1348_splitncnn_1 1348_splitncnn_2
Concat                   Concat_650               3 1 1343_splitncnn_3 1345_splitncnn_2 1348_splitncnn_2 1349
Convolution              Conv_651                 1 1 1349 1351 0=32 1=3 4=1 5=1 6=36864 9=2 -23310=1,0.2
Split                    splitncnn_155            1 2 1351 1351_splitncnn_0 1351_splitncnn_1
Concat                   Concat_653               4 1 1343_splitncnn_2 1345_splitncnn_1 1348_splitncnn_1 1351_splitncnn_1 1352
Convolution              Conv_654                 1 1 1352 1354 0=32 1=3 4=1 5=1 6=46080 9=2 -23310=1,0.2
Concat                   Concat_656               5 1 1343_splitncnn_1 1345_splitncnn_0 1348_splitncnn_0 1351_splitncnn_0 1354 1355
Convolution              Conv_657                 1 1 1355 1356 0=64 1=3 4=1 5=1 6=110592
Eltwise                  Add_660                  2 1 1356 1343_splitncnn_0 1359 0=1 -23301=2,0.2,1.0
Eltwise                  Add_663                  2 1 1359 1311_splitncnn_0 1362 0=1 -23301=2,0.2,1.0
Split                    splitncnn_156            1 7 1362 1362_splitncnn_0 1362_splitncnn_1 1362_splitncnn_2 1362_splitncnn_3 1362_splitncnn_4 1362_splitncnn_5 1362_splitncnn_6
Convolution              Conv_664                 1 1 1362_splitncnn_6 1364 0=32 1=3 4=1 5=1 6=18432 9=2 -23310=1,0.2
Split                    splitncnn_157            1 4 1364 1364_splitncnn_0 1364_splitncnn_1 1364_splitncnn_2 1364_splitncnn_3
Concat                   Concat_666               2 1 1362_splitncnn_5 1364_splitncnn_3 1365
Convolution              Conv_667                 1 1 1365 1367 0=32 1=3 4=1 5=1 6=27648 9=2 -23310=1,0.2
Split                    splitncnn_158            1 3 1367 1367_splitncnn_0 1367_splitncnn_1 1367_splitncnn_2
Concat                   Concat_669               3 1 1362_splitncnn_4 1364_splitncnn_2 1367_splitncnn_2 1368
Convolution              Conv_670                 1 1 1368 1370 0=32 1=3 4=1 5=1 6=36864 9=2 -23310=1,0.2
Split                    splitncnn_159            1 2 1370 1370_splitncnn_0 1370_splitncnn_1
Concat                   Concat_672               4 1 1362_splitncnn_3 1364_splitncnn_1 1367_splitncnn_1 1370_splitncnn_1 1371
Convolution              Conv_673                 1 1 1371 1373 0=32 1=3 4=1 5=1 6=46080 9=2 -23310=1,0.2
Concat                   Concat_675               5 1 1362_splitncnn_2 1364_splitncnn_0 1367_splitncnn_0 1370_splitncnn_0 1373 1374
Convolution              Conv_676                 1 1 1374 1375 0=64 1=3 4=1 5=1 6=110592
Eltwise                  Add_679                  2 1 1375 1362_splitncnn_1 1378 0=1 -23301=2,0.2,1.0
Split                    splitncnn_160            1 6 1378 1378_splitncnn_0 1378_splitncnn_1 1378_splitncnn_2 1378_splitncnn_3 1378_splitncnn_4 1378_splitncnn_5
Convolution              Conv_680                 1 1 1378_splitncnn_5 1380 0=32 1=3 4=1 5=1 6=18432 9=2 -23310=1,0.2
Split                    splitncnn_161            1 4 1380 1380_splitncnn_0 1380_splitncnn_1 1380_splitncnn_2 1380_splitncnn_3
Concat                   Concat_682               2 1 1378_splitncnn_4 1380_splitncnn_3 1381
Convolution              Conv_683                 1 1 1381 1383 0=32 1=3 4=1 5=1 6=27648 9=2 -23310=1,0.2
Split                    splitncnn_162            1 3 1383 1383_splitncnn_0 1383_splitncnn_1 1383_splitncnn_2
Concat                   Concat_685               3 1 1378_splitncnn_3 1380_splitncnn_2 1383_splitncnn_2 1384
Convolution              Conv_686                 1 1 1384 1386 0=32 1=3 4=1 5=1 6=36864 9=2 -23310=1,0.2
Split                    splitncnn_163            1 2 1386 1386_splitncnn_0 1386_splitncnn_1
Concat                   Concat_688               4 1 1378_splitncnn_2 1380_splitncnn_1 1383_splitncnn_1 1386_splitncnn_1 1387
Convolution              Conv_689                 1 1 1387 1389 0=32 1=3 4=1 5=1 6=46080 9=2 -23310=1,0.2
Concat                   Concat_691               5 1 1378_splitncnn_1 1380_splitncnn_0 1383_splitncnn_0 1386_splitncnn_0 1389 1390
Convolution              Conv_692                 1 1 1390 1391 0=64 1=3 4=1 5=1 6=110592
Eltwise                  Add_695                  2 1 1391 1378_splitncnn_0 1394 0=1 -23301=2,0.2,1.0
Split                    splitncnn_164            1 6 1394 1394_splitncnn_0 1394_splitncnn_1 1394_splitncnn_2 1394_splitncnn_3 1394_splitncnn_4 1394_splitncnn_5
Convolution              Conv_696                 1 1 1394_splitncnn_5 1396 0=32 1=3 4=1 5=1 6=18432 9=2 -23310=1,0.2
Split                    splitncnn_165            1 4 1396 1396_splitncnn_0 1396_splitncnn_1 1396_splitncnn_2 1396_splitncnn_3
Concat                   Concat_698               2 1 1394_splitncnn_4 1396_splitncnn_3 1397
Convolution              Conv_699                 1 1 1397 1399 0=32 1=3 4=1 5=1 6=27648 9=2 -23310=1,0.2
Split                    splitncnn_166            1 3 1399 1399_splitncnn_0 1399_splitncnn_1 1399_splitncnn_2
Concat                   Concat_701               3 1 1394_splitncnn_3 1396_splitncnn_2 1399_splitncnn_2 1400
Convolution              Conv_702                 1 1 1400 1402 0=32 1=3 4=1 5=1 6=36864 9=2 -23310=1,0.2
Split                    splitncnn_167            1 2 1402 1402_splitncnn_0 1402_splitncnn_1
Concat                   Concat_704               4 1 1394_splitncnn_2 1396_splitncnn_1 1399_splitncnn_1 1402_splitncnn_1 1403
Convolution              Conv_705                 1 1 1403 1405 0=32 1=3 4=1 5=1 6=46080 9=2 -23310=1,0.2
Concat                   Concat_707               5 1 1394_splitncnn_1 1396_splitncnn_0 1399_splitncnn_0 1402_splitncnn_0 1405 1406
Convolution              Conv_708                 1 1 1406 1407 0=64 1=3 4=1 5=1 6=110592
Eltwise                  Add_711                  2 1 1407 1394_splitncnn_0 1410 0=1 -23301=2,0.2,1.0
Eltwise                  Add_714                  2 1 1410 1362_splitncnn_0 1413 0=1 -23301=2,0.2,1.0
Split                    splitncnn_168            1 7 1413 1413_splitncnn_0 1413_splitncnn_1 1413_splitncnn_2 1413_splitncnn_3 1413_splitncnn_4 1413_splitncnn_5 1413_splitncnn_6
Convolution              Conv_715                 1 1 1413_splitncnn_6 1415 0=32 1=3 4=1 5=1 6=18432 9=2 -23310=1,0.2
Split                    splitncnn_169            1 4 1415 1415_splitncnn_0 1415_splitncnn_1 1415_splitncnn_2 1415_splitncnn_3
Concat                   Concat_717               2 1 1413_splitncnn_5 1415_splitncnn_3 1416
Convolution              Conv_718                 1 1 1416 1418 0=32 1=3 4=1 5=1 6=27648 9=2 -23310=1,0.2
Split                    splitncnn_170            1 3 1418 1418_splitncnn_0 1418_splitncnn_1 1418_splitncnn_2
Concat                   Concat_720               3 1 1413_splitncnn_4 1415_splitncnn_2 1418_splitncnn_2 1419
Convolution              Conv_721                 1 1 1419 1421 0=32 1=3 4=1 5=1 6=36864 9=2 -23310=1,0.2
Split                    splitncnn_171            1 2 1421 1421_splitncnn_0 1421_splitncnn_1
Concat                   Concat_723               4 1 1413_splitncnn_3 1415_splitncnn_1 1418_splitncnn_1 1421_splitncnn_1 1422
Convolution              Conv_724                 1 1 1422 1424 0=32 1=3 4=1 5=1 6=46080 9=2 -23310=1,0.2
Concat                   Concat_726               5 1 1413_splitncnn_2 1415_splitncnn_0 1418_splitncnn_0 1421_splitncnn_0 1424 1425
Convolution              Conv_727                 1 1 1425 1426 0=64 1=3 4=1 5=1 6=110592
Eltwise                  Add_730                  2 1 1426 1413_splitncnn_1 1429 0=1 -23301=2,0.2,1.0
Split                    splitncnn_172            1 6 1429 1429_splitncnn_0 1429_splitncnn_1 1429_splitncnn_2 1429_splitncnn_3 1429_splitncnn_4 1429_splitncnn_5
Convolution              Conv_731                 1 1 1429_splitncnn_5 1431 0=32 1=3 4=1 5=1 6=18432 9=2 -23310=1,0.2
Split                    splitncnn_173            1 4 1431 1431_splitncnn_0 1431_splitncnn_1 1431_splitncnn_2 1431_splitncnn_3
Concat                   Concat_733               2 1 1429_splitncnn_4 1431_splitncnn_3 1432
Convolution              Conv_734                 1 1 1432 1434 0=32 1=3 4=1 5=1 6=27648 9=2 -23310=1,0.2
Split                    splitncnn_174            1 3 1434 1434_splitncnn_0 1434_splitncnn_1 1434_splitncnn_2
Concat                   Concat_736               3 1 1429_splitncnn_3 1431_splitncnn_2 1434_splitncnn_2 1435
Convolution              Conv_737                 1 1 1435 1437 0=32 1=3 4=1 5=1 6=36864 9=2 -23310=1,0.2
Split                    splitncnn_175            1 2 1437 1437_splitncnn_0 1437_splitncnn_1
Concat                   Concat_739               4 1 1429_splitncnn_2 1431_splitncnn_1 1434_splitncnn_1 1437_splitncnn_1 1438
Convolution              Conv_740                 1 1 1438 1440 0=32 1=3 4=1 5=1 6=46080 9=2 -23310=1,0.2
Concat                   Concat_742               5 1 1429_splitncnn_1 1431_splitncnn_0 1434_splitncnn_0 1437_splitncnn_0 1440 1441
Convolution              Conv_743                 1 1 1441 1442 0=64 1=3 4=1 5=1 6=110592
Eltwise                  Add_746                  2 1 1442 1429_splitncnn_0 1445 0=1 -23301=2,0.2,1.0
Split                    splitncnn_176            1 6 1445 1445_splitncnn_0 1445_splitncnn_1 1445_splitncnn_2 1445_splitncnn_3 1445_splitncnn_4 1445_splitncnn_5
Convolution              Conv_747                 1 1 1445_splitncnn_5 1447 0=32 1=3 4=1 5=1 6=18432 9=2 -23310=1,0.2
Split                    splitncnn_177            1 4 1447 1447_splitncnn_0 1447_splitncnn_1 1447_splitncnn_2 1447_splitncnn_3
Concat                   Concat_749               2 1 1445_splitncnn_4 1447_splitncnn_3 1448
Convolution              Conv_750                 1 1 1448 1450 0=32 1=3 4=1 5=1 6=27648 9=2 -23310=1,0.2
Split                    splitncnn_178            1 3 1450 1450_splitncnn_0 1450_splitncnn_1 1450_splitncnn_2
Concat                   Concat_752               3 1 1445_splitncnn_3 1447_splitncnn_2 1450_splitncnn_2 1451
Convolution              Conv_753                 1 1 1451 1453 0=32 1=3 4=1 5=1 6=36864 9=2 -23310=1,0.2
Split                    splitncnn_179            1 2 1453 1453_splitncnn_0 1453_splitncnn_1
Concat                   Concat_755               4 1 1445_splitncnn_2 1447_splitncnn_1 1450_splitncnn_1 1453_splitncnn_1 1454
Convolution              Conv_756                 1 1 1454 1456 0=32 1=3 4=1 5=1 6=46080 9=2 -23310=1,0.2
Concat                   Concat_758               5 1 1445_splitncnn_1 1447_splitncnn_0 1450_splitncnn_0 1453_splitncnn_0 1456 1457
Convolution              Conv_759                 1 1 1457 1458 0=64 1=3 4=1 5=1 6=110592
Eltwise                  Add_762                  2 1 1458 1445_splitncnn_0 1461 0=1 -23301=2,0.2,1.0
Eltwise                  Add_765                  2 1 1461 1413_splitncnn_0 1464 0=1 -23301=2,0.2,1.0
Split                    splitncnn_180            1 7 1464 1464_splitncnn_0 1464_splitncnn_1 1464_splitncnn_2 1464_splitncnn_3 1464_splitncnn_4 1464_splitncnn_5 1464_splitncnn_6
Convolution              Conv_766                 1 1 1464_splitncnn_6 1466 0=32 1=3 4=1 5=1 6=18432 9=2 -23310=1,0.2
Split                    splitncnn_181            1 4 1466 1466_splitncnn_0 1466_splitncnn_1 1466_splitncnn_2 1466_splitncnn_3
Concat                   Concat_768               2 1 1464_splitncnn_5 1466_splitncnn_3 1467
Convolution              Conv_769                 1 1 1467 1469 0=32 1=3 4=1 5=1 6=27648 9=2 -23310=1,0.2
Split                    splitncnn_182            1 3 1469 1469_splitncnn_0 1469_splitncnn_1 1469_splitncnn_2
Concat                   Concat_771               3 1 1464_splitncnn_4 1466_splitncnn_2 1469_splitncnn_2 1470
Convolution              Conv_772                 1 1 1470 1472 0=32 1=3 4=1 5=1 6=36864 9=2 -23310=1,0.2
Split                    splitncnn_183            1 2 1472 1472_splitncnn_0 1472_splitncnn_1
Concat                   Concat_774               4 1 1464_splitncnn_3 1466_splitncnn_1 1469_splitncnn_1 1472_splitncnn_1 1473
Convolution              Conv_775                 1 1 1473 1475 0=32 1=3 4=1 5=1 6=46080 9=2 -23310=1,0.2
Concat                   Concat_777               5 1 1464_splitncnn_2 1466_splitncnn_0 1469_splitncnn_0 1472_splitncnn_0 1475 1476
Convolution              Conv_778                 1 1 1476 1477 0=64 1=3 4=1 5=1 6=110592
Eltwise                  Add_781                  2 1 1477 1464_splitncnn_1 1480 0=1 -23301=2,0.2,1.0
Split                    splitncnn_184            1 6 1480 1480_splitncnn_0 1480_splitncnn_1 1480_splitncnn_2 1480_splitncnn_3 1480_splitncnn_4 1480_splitncnn_5
Convolution              Conv_782                 1 1 1480_splitncnn_5 1482 0=32 1=3 4=1 5=1 6=18432 9=2 -23310=1,0.2
Split                    splitncnn_185            1 4 1482 1482_splitncnn_0 1482_splitncnn_1 1482_splitncnn_2 1482_splitncnn_3
Concat                   Concat_784               2 1 1480_splitncnn_4 1482_splitncnn_3 1483
Convolution              Conv_785                 1 1 1483 1485 0=32 1=3 4=1 5=1 6=27648 9=2 -23310=1,0.2
Split                    splitncnn_186            1 3 1485 1485_splitncnn_0 1485_splitncnn_1 1485_splitncnn_2
Concat                   Concat_787               3 1 1480_splitncnn_3 1482_splitncnn_2 1485_splitncnn_2 1486
Convolution              Conv_788                 1 1 1486 1488 0=32 1=3 4=1 5=1 6=36864 9=2 -23310=1,0.2
Split                    splitncnn_187            1 2 1488 1488_splitncnn_0 1488_splitncnn_1
Concat                   Concat_790               4 1 1480_splitncnn_2 1482_splitncnn_1 1485_splitncnn_1 1488_splitncnn_1 1489
Convolution              Conv_791                 1 1 1489 1491 0=32 1=3 4=1 5=1 6=46080 9=2 -23310=1,0.2
Concat                   Concat_793               5 1 1480_splitncnn_1 1482_splitncnn_0 1485_splitncnn_0 1488_splitncnn_0 1491 1492
Convolution              Conv_794                 1 1 1492 1493 0=64 1=3 4=1 5=1 6=110592
Eltwise                  Add_797                  2 1 1493 1480_splitncnn_0 1496 0=1 -23301=2,0.2,1.0
Split                    splitncnn_188            1 6 1496 1496_splitncnn_0 1496_splitncnn_1 1496_splitncnn_2 1496_splitncnn_3 1496_splitncnn_4 1496_splitncnn_5
Convolution              Conv_798                 1 1 1496_splitncnn_5 1498 0=32 1=3 4=1 5=1 6=18432 9=2 -23310=1,0.2
Split                    splitncnn_189            1 4 1498 1498_splitncnn_0 1498_splitncnn_1 1498_splitncnn_2 1498_splitncnn_3
Concat                   Concat_800               2 1 1496_splitncnn_4 1498_splitncnn_3 1499
Convolution              Conv_801                 1 1 1499 1501 0=32 1=3 4=1 5=1 6=27648 9=2 -23310=1,0.2
Split                    splitncnn_190            1 3 1501 1501_splitncnn_0 1501_splitncnn_1 1501_splitncnn_2
Concat                   Concat_803               3 1 1496_splitncnn_3 1498_splitncnn_2 1501_splitncnn_2 1502
Convolution              Conv_804                 1 1 1502 1504 0=32 1=3 4=1 5=1 6=36864 9=2 -23310=1,0.2
Split                    splitncnn_191            1 2 1504 1504_splitncnn_0 1504_splitncnn_1
Concat                   Concat_806               4 1 1496_splitncnn_2 1498_splitncnn_1 1501_splitncnn_1 1504_splitncnn_1 1505
Convolution              Conv_807                 1 1 1505 1507 0=32 1=3 4=1 5=1 6=46080 9=2 -23310=1,0.2
Concat                   Concat_809               5 1 1496_splitncnn_1 1498_splitncnn_0 1501_splitncnn_0 1504_splitncnn_0 1507 1508
Convolution              Conv_810                 1 1 1508 1509 0=64 1=3 4=1 5=1 6=110592
Eltwise                  Add_813                  2 1 1509 1496_splitncnn_0 1512 0=1 -23301=2,0.2,1.0
Eltwise                  Add_816                  2 1 1512 1464_splitncnn_0 1515 0=1 -23301=2,0.2,1.0
Split                    splitncnn_192            1 7 1515 1515_splitncnn_0 1515_splitncnn_1 1515_splitncnn_2 1515_splitncnn_3 1515_splitncnn_4 1515_splitncnn_5 1515_splitncnn_6
Convolution              Conv_817                 1 1 1515_splitncnn_6 1517 0=32 1=3 4=1 5=1 6=18432 9=2 -23310=1,0.2
Split                    splitncnn_193            1 4 1517 1517_splitncnn_0 1517_splitncnn_1 1517_splitncnn_2 1517_splitncnn_3
Concat                   Concat_819               2 1 1515_splitncnn_5 1517_splitncnn_3 1518
Convolution              Conv_820                 1 1 1518 1520 0=32 1=3 4=1 5=1 6=27648 9=2 -23310=1,0.2
Split                    splitncnn_194            1 3 1520 1520_splitncnn_0 1520_splitncnn_1 1520_splitncnn_2
Concat                   Concat_822               3 1 1515_splitncnn_4 1517_splitncnn_2 1520_splitncnn_2 1521
Convolution              Conv_823                 1 1 1521 1523 0=32 1=3 4=1 5=1 6=36864 9=2 -23310=1,0.2
Split                    splitncnn_195            1 2 1523 1523_splitncnn_0 1523_splitncnn_1
Concat                   Concat_825               4 1 1515_splitncnn_3 1517_splitncnn_1 1520_splitncnn_1 1523_splitncnn_1 1524
Convolution              Conv_826                 1 1 1524 1526 0=32 1=3 4=1 5=1 6=46080 9=2 -23310=1,0.2
Concat                   Concat_828               5 1 1515_splitncnn_2 1517_splitncnn_0 1520_splitncnn_0 1523_splitncnn_0 1526 1527
Convolution              Conv_829                 1 1 1527 1528 0=64 1=3 4=1 5=1 6=110592
Eltwise                  Add_832                  2 1 1528 1515_splitncnn_1 1531 0=1 -23301=2,0.2,1.0
Split                    splitncnn_196            1 6 1531 1531_splitncnn_0 1531_splitncnn_1 1531_splitncnn_2 1531_splitncnn_3 1531_splitncnn_4 1531_splitncnn_5
Convolution              Conv_833                 1 1 1531_splitncnn_5 1533 0=32 1=3 4=1 5=1 6=18432 9=2 -23310=1,0.2
Split                    splitncnn_197            1 4 1533 1533_splitncnn_0 1533_splitncnn_1 1533_splitncnn_2 1533_splitncnn_3
Concat                   Concat_835               2 1 1531_splitncnn_4 1533_splitncnn_3 1534
Convolution              Conv_836                 1 1 1534 1536 0=32 1=3 4=1 5=1 6=27648 9=2 -23310=1,0.2
Split                    splitncnn_198            1 3 1536 1536_splitncnn_0 1536_splitncnn_1 1536_splitncnn_2
Concat                   Concat_838               3 1 1531_splitncnn_3 1533_splitncnn_2 1536_splitncnn_2 1537
Convolution              Conv_839                 1 1 1537 1539 0=32 1=3 4=1 5=1 6=36864 9=2 -23310=1,0.2
Split                    splitncnn_199            1 2 1539 1539_splitncnn_0 1539_splitncnn_1
Concat                   Concat_841               4 1 1531_splitncnn_2 1533_splitncnn_1 1536_splitncnn_1 1539_splitncnn_1 1540
Convolution              Conv_842                 1 1 1540 1542 0=32 1=3 4=1 5=1 6=46080 9=2 -23310=1,0.2
Concat                   Concat_844               5 1 1531_splitncnn_1 1533_splitncnn_0 1536_splitncnn_0 1539_splitncnn_0 1542 1543
Convolution              Conv_845                 1 1 1543 1544 0=64 1=3 4=1 5=1 6=110592
Eltwise                  Add_848                  2 1 1544 1531_splitncnn_0 1547 0=1 -23301=2,0.2,1.0
Split                    splitncnn_200            1 6 1547 1547_splitncnn_0 1547_splitncnn_1 1547_splitncnn_2 1547_splitncnn_3 1547_splitncnn_4 1547_splitncnn_5
Convolution              Conv_849                 1 1 1547_splitncnn_5 1549 0=32 1=3 4=1 5=1 6=18432 9=2 -23310=1,0.2
Split                    splitncnn_201            1 4 1549 1549_splitncnn_0 1549_splitncnn_1 1549_splitncnn_2 1549_splitncnn_3
Concat                   Concat_851               2 1 1547_splitncnn_4 1549_splitncnn_3 1550
Convolution              Conv_852                 1 1 1550 1552 0=32 1=3 4=1 5=1 6=27648 9=2 -23310=1,0.2
Split                    splitncnn_202            1 3 1552 1552_splitncnn_0 1552_splitncnn_1 1552_splitncnn_2
Concat                   Concat_854               3 1 1547_splitncnn_3 1549_splitncnn_2 1552_splitncnn_2 1553
Convolution              Conv_855                 1 1 1553 1555 0=32 1=3 4=1 5=1 6=36864 9=2 -23310=1,0.2
Split                    splitncnn_203            1 2 1555 1555_splitncnn_0 1555_splitncnn_1
Concat                   Concat_857               4 1 1547_splitncnn_2 1549_splitncnn_1 1552_splitncnn_1 1555_splitncnn_1 1556
Convolution              Conv_858                 1 1 1556 1558 0=32 1=3 4=1 5=1 6=46080 9=2 -23310=1,0.2
Concat                   Concat_860               5 1 1547_splitncnn_1 1549_splitncnn_0 1552_splitncnn_0 1555_splitncnn_0 1558 1559
Convolution              Conv_861                 1 1 1559 1560 0=64 1=3 4=1 5=1 6=110592
Eltwise                  Add_864                  2 1 1560 1547_splitncnn_0 1563 0=1 -23301=2,0.2,1.0
Eltwise                  Add_867                  2 1 1563 1515_splitncnn_0 1566 0=1 -23301=2,0.2,1.0
Split                    splitncnn_204            1 7 1566 1566_splitncnn_0 1566_splitncnn_1 1566_splitncnn_2 1566_splitncnn_3 1566_splitncnn_4 1566_splitncnn_5 1566_splitncnn_6
Convolution              Conv_868                 1 1 1566_splitncnn_6 1568 0=32 1=3 4=1 5=1 6=18432 9=2 -23310=1,0.2
Split                    splitncnn_205            1 4 1568 1568_splitncnn_0 1568_splitncnn_1 1568_splitncnn_2 1568_splitncnn_3
Concat                   Concat_870               2 1 1566_splitncnn_5 1568_splitncnn_3 1569
Convolution              Conv_871                 1 1 1569 1571 0=32 1=3 4=1 5=1 6=27648 9=2 -23310=1,0.2
Split                    splitncnn_206            1 3 1571 1571_splitncnn_0 1571_splitncnn_1 1571_splitncnn_2
Concat                   Concat_873               3 1 1566_splitncnn_4 1568_splitncnn_2 1571_splitncnn_2 1572
Convolution              Conv_874                 1 1 1572 1574 0=32 1=3 4=1 5=1 6=36864 9=2 -23310=1,0.2
Split                    splitncnn_207            1 2 1574 1574_splitncnn_0 1574_splitncnn_1
Concat                   Concat_876               4 1 1566_splitncnn_3 1568_splitncnn_1 1571_splitncnn_1 1574_splitncnn_1 1575
Convolution              Conv_877                 1 1 1575 1577 0=32 1=3 4=1 5=1 6=46080 9=2 -23310=1,0.2
Concat                   Concat_879               5 1 1566_splitncnn_2 1568_splitncnn_0 1571_splitncnn_0 1574_splitncnn_0 1577 1578
Convolution              Conv_880                 1 1 1578 1579 0=64 1=3 4=1 5=1 6=110592
Eltwise                  Add_883                  2 1 1579 1566_splitncnn_1 1582 0=1 -23301=2,0.2,1.0
Split                    splitncnn_208            1 6 1582 1582_splitncnn_0 1582_splitncnn_1 1582_splitncnn_2 1582_splitncnn_3 1582_splitncnn_4 1582_splitncnn_5
Convolution              Conv_884                 1 1 1582_splitncnn_5 1584 0=32 1=3 4=1 5=1 6=18432 9=2 -23310=1,0.2
Split                    splitncnn_209            1 4 1584 1584_splitncnn_0 1584_splitncnn_1 1584_splitncnn_2 1584_splitncnn_3
Concat                   Concat_886               2 1 1582_splitncnn_4 1584_splitncnn_3 1585
Convolution              Conv_887                 1 1 1585 1587 0=32 1=3 4=1 5=1 6=27648 9=2 -23310=1,0.2
Split                    splitncnn_210            1 3 1587 1587_splitncnn_0 1587_splitncnn_1 1587_splitncnn_2
Concat                   Concat_889               3 1 1582_splitncnn_3 1584_splitncnn_2 1587_splitncnn_2 1588
Convolution              Conv_890                 1 1 1588 1590 0=32 1=3 4=1 5=1 6=36864 9=2 -23310=1,0.2
Split                    splitncnn_211            1 2 1590 1590_splitncnn_0 1590_splitncnn_1
Concat                   Concat_892               4 1 1582_splitncnn_2 1584_splitncnn_1 1587_splitncnn_1 1590_splitncnn_1 1591
Convolution              Conv_893                 1 1 1591 1593 0=32 1=3 4=1 5=1 6=46080 9=2 -23310=1,0.2
Concat                   Concat_895               5 1 1582_splitncnn_1 1584_splitncnn_0 1587_splitncnn_0 1590_splitncnn_0 1593 1594
Convolution              Conv_896                 1 1 1594 1595 0=64 1=3 4=1 5=1 6=110592
Eltwise                  Add_899                  2 1 1595 1582_splitncnn_0 1598 0=1 -23301=2,0.2,1.0
Split                    splitncnn_212            1 6 1598 1598_splitncnn_0 1598_splitncnn_1 1598_splitncnn_2 1598_splitncnn_3 1598_splitncnn_4 1598_splitncnn_5
Convolution              Conv_900                 1 1 1598_splitncnn_5 1600 0=32 1=3 4=1 5=1 6=18432 9=2 -23310=1,0.2
Split                    splitncnn_213            1 4 1600 1600_splitncnn_0 1600_splitncnn_1 1600_splitncnn_2 1600_splitncnn_3
Concat                   Concat_902               2 1 1598_splitncnn_4 1600_splitncnn_3 1601
Convolution              Conv_903                 1 1 1601 1603 0=32 1=3 4=1 5=1 6=27648 9=2 -23310=1,0.2
Split                    splitncnn_214            1 3 1603 1603_splitncnn_0 1603_splitncnn_1 1603_splitncnn_2
Concat                   Concat_905               3 1 1598_splitncnn_3 1600_splitncnn_2 1603_splitncnn_2 1604
Convolution              Conv_906                 1 1 1604 1606 0=32 1=3 4=1 5=1 6=36864 9=2 -23310=1,0.2
Split                    splitncnn_215            1 2 1606 1606_splitncnn_0 1606_splitncnn_1
Concat                   Concat_908               4 1 1598_splitncnn_2 1600_splitncnn_1 1603_splitncnn_1 1606_splitncnn_1 1607
Convolution              Conv_909                 1 1 1607 1609 0=32 1=3 4=1 5=1 6=46080 9=2 -23310=1,0.2
Concat                   Concat_911               5 1 1598_splitncnn_1 1600_splitncnn_0 1603_splitncnn_0 1606_splitncnn_0 1609 1610
Convolution              Conv_912                 1 1 1610 1611 0=64 1=3 4=1 5=1 6=110592
Eltwise                  Add_915                  2 1 1611 1598_splitncnn_0 1614 0=1 -23301=2,0.2,1.0
Eltwise                  Add_918                  2 1 1614 1566_splitncnn_0 1617 0=1 -23301=2,0.2,1.0
Split                    splitncnn_216            1 7 1617 1617_splitncnn_0 1617_splitncnn_1 1617_splitncnn_2 1617_splitncnn_3 1617_splitncnn_4 1617_splitncnn_5 1617_splitncnn_6
Convolution              Conv_919                 1 1 1617_splitncnn_6 1619 0=32 1=3 4=1 5=1 6=18432 9=2 -23310=1,0.2
Split                    splitncnn_217            1 4 1619 1619_splitncnn_0 1619_splitncnn_1 1619_splitncnn_2 1619_splitncnn_3
Concat                   Concat_921               2 1 1617_splitncnn_5 1619_splitncnn_3 1620
Convolution              Conv_922                 1 1 1620 1622 0=32 1=3 4=1 5=1 6=27648 9=2 -23310=1,0.2
Split                    splitncnn_218            1 3 1622 1622_splitncnn_0 1622_splitncnn_1 1622_splitncnn_2
Concat                   Concat_924               3 1 1617_splitncnn_4 1619_splitncnn_2 1622_splitncnn_2 1623
Convolution              Conv_925                 1 1 1623 1625 0=32 1=3 4=1 5=1 6=36864 9=2 -23310=1,0.2
Split                    splitncnn_219            1 2 1625 1625_splitncnn_0 1625_splitncnn_1
Concat                   Concat_927               4 1 1617_splitncnn_3 1619_splitncnn_1 1622_splitncnn_1 1625_splitncnn_1 1626
Convolution              Conv_928                 1 1 1626 1628 0=32 1=3 4=1 5=1 6=46080 9=2 -23310=1,0.2
Concat                   Concat_930               5 1 1617_splitncnn_2 1619_splitncnn_0 1622_splitncnn_0 1625_splitncnn_0 1628 1629
Convolution              Conv_931                 1 1 1629 1630 0=64 1=3 4=1 5=1 6=110592
Eltwise                  Add_934                  2 1 1630 1617_splitncnn_1 1633 0=1 -23301=2,0.2,1.0
Split                    splitncnn_220            1 6 1633 1633_splitncnn_0 1633_splitncnn_1 1633_splitncnn_2 1633_splitncnn_3 1633_splitncnn_4 1633_splitncnn_5
Convolution              Conv_935                 1 1 1633_splitncnn_5 1635 0=32 1=3 4=1 5=1 6=18432 9=2 -23310=1,0.2
Split                    splitncnn_221            1 4 1635 1635_splitncnn_0 1635_splitncnn_1 1635_splitncnn_2 1635_splitncnn_3
Concat                   Concat_937               2 1 1633_splitncnn_4 1635_splitncnn_3 1636
Convolution              Conv_938                 1 1 1636 1638 0=32 1=3 4=1 5=1 6=27648 9=2 -23310=1,0.2
Split                    splitncnn_222            1 3 1638 1638_splitncnn_0 1638_splitncnn_1 1638_splitncnn_2
Concat                   Concat_940               3 1 1633_splitncnn_3 1635_splitncnn_2 1638_splitncnn_2 1639
Convolution              Conv_941                 1 1 1639 1641 0=32 1=3 4=1 5=1 6=36864 9=2 -23310=1,0.2
Split                    splitncnn_223            1 2 1641 1641_splitncnn_0 1641_splitncnn_1
Concat                   Concat_943               4 1 1633_splitncnn_2 1635_splitncnn_1 1638_splitncnn_1 1641_splitncnn_1 1642
Convolution              Conv_944                 1 1 1642 1644 0=32 1=3 4=1 5=1 6=46080 9=2 -23310=1,0.2
Concat                   Concat_946               5 1 1633_splitncnn_1 1635_splitncnn_0 1638_splitncnn_0 1641_splitncnn_0 1644 1645
Convolution              Conv_947                 1 1 1645 1646 0=64 1=3 4=1 5=1 6=110592
Eltwise                  Add_950                  2 1 1646 1633_splitncnn_0 1649 0=1 -23301=2,0.2,1.0
Split                    splitncnn_224            1 6 1649 1649_splitncnn_0 1649_splitncnn_1 1649_splitncnn_2 1649_splitncnn_3 1649_splitncnn_4 1649_splitncnn_5
Convolution              Conv_951                 1 1 1649_splitncnn_5 1651 0=32 1=3 4=1 5=1 6=18432 9=2 -23310=1,0.2
Split                    splitncnn_225            1 4 1651 1651_splitncnn_0 1651_splitncnn_1 1651_splitncnn_2 1651_splitncnn_3
Concat                   Concat_953               2 1 1649_splitncnn_4 1651_splitncnn_3 1652
Convolution              Conv_954                 1 1 1652 1654 0=32 1=3 4=1 5=1 6=27648 9=2 -23310=1,0.2
Split                    splitncnn_226            1 3 1654 1654_splitncnn_0 1654_splitncnn_1 1654_splitncnn_2
Concat                   Concat_956               3 1 1649_splitncnn_3 1651_splitncnn_2 1654_splitncnn_2 1655
Convolution              Conv_957                 1 1 1655 1657 0=32 1=3 4=1 5=1 6=36864 9=2 -23310=1,0.2
Split                    splitncnn_227            1 2 1657 1657_splitncnn_0 1657_splitncnn_1
Concat                   Concat_959               4 1 1649_splitncnn_2 1651_splitncnn_1 1654_splitncnn_1 1657_splitncnn_1 1658
Convolution              Conv_960                 1 1 1658 1660 0=32 1=3 4=1 5=1 6=46080 9=2 -23310=1,0.2
Concat                   Concat_962               5 1 1649_splitncnn_1 1651_splitncnn_0 1654_splitncnn_0 1657_splitncnn_0 1660 1661
Convolution              Conv_963                 1 1 1661 1662 0=64 1=3 4=1 5=1 6=110592
Eltwise                  Add_966                  2 1 1662 1649_splitncnn_0 1665 0=1 -23301=2,0.2,1.0
Eltwise                  Add_969                  2 1 1665 1617_splitncnn_0 1668 0=1 -23301=2,0.2,1.0
Split                    splitncnn_228            1 7 1668 1668_splitncnn_0 1668_splitncnn_1 1668_splitncnn_2 1668_splitncnn_3 1668_splitncnn_4 1668_splitncnn_5 1668_splitncnn_6
Convolution              Conv_970                 1 1 1668_splitncnn_6 1670 0=32 1=3 4=1 5=1 6=18432 9=2 -23310=1,0.2
Split                    splitncnn_229            1 4 1670 1670_splitncnn_0 1670_splitncnn_1 1670_splitncnn_2 1670_splitncnn_3
Concat                   Concat_972               2 1 1668_splitncnn_5 1670_splitncnn_3 1671
Convolution              Conv_973                 1 1 1671 1673 0=32 1=3 4=1 5=1 6=27648 9=2 -23310=1,0.2
Split                    splitncnn_230            1 3 1673 1673_splitncnn_0 1673_splitncnn_1 1673_splitncnn_2
Concat                   Concat_975               3 1 1668_splitncnn_4 1670_splitncnn_2 1673_splitncnn_2 1674
Convolution              Conv_976                 1 1 1674 1676 0=32 1=3 4=1 5=1 6=36864 9=2 -23310=1,0.2
Split                    splitncnn_231            1 2 1676 1676_splitncnn_0 1676_splitncnn_1
Concat                   Concat_978               4 1 1668_splitncnn_3 1670_splitncnn_1 1673_splitncnn_1 1676_splitncnn_1 1677
Convolution              Conv_979                 1 1 1677 1679 0=32 1=3 4=1 5=1 6=46080 9=2 -23310=1,0.2
Concat                   Concat_981               5 1 1668_splitncnn_2 1670_splitncnn_0 1673_splitncnn_0 1676_splitncnn_0 1679 1680
Convolution              Conv_982                 1 1 1680 1681 0=64 1=3 4=1 5=1 6=110592
Eltwise                  Add_985                  2 1 1681 1668_splitncnn_1 1684 0=1 -23301=2,0.2,1.0
Split                    splitncnn_232            1 6 1684 1684_splitncnn_0 1684_splitncnn_1 1684_splitncnn_2 1684_splitncnn_3 1684_splitncnn_4 1684_splitncnn_5
Convolution              Conv_986                 1 1 1684_splitncnn_5 1686 0=32 1=3 4=1 5=1 6=18432 9=2 -23310=1,0.2
Split                    splitncnn_233            1 4 1686 1686_splitncnn_0 1686_splitncnn_1 1686_splitncnn_2 1686_splitncnn_3
Concat                   Concat_988               2 1 1684_splitncnn_4 1686_splitncnn_3 1687
Convolution              Conv_989                 1 1 1687 1689 0=32 1=3 4=1 5=1 6=27648 9=2 -23310=1,0.2
Split                    splitncnn_234            1 3 1689 1689_splitncnn_0 1689_splitncnn_1 1689_splitncnn_2
Concat                   Concat_991               3 1 1684_splitncnn_3 1686_splitncnn_2 1689_splitncnn_2 1690
Convolution              Conv_992                 1 1 1690 1692 0=32 1=3 4=1 5=1 6=36864 9=2 -23310=1,0.2
Split                    splitncnn_235            1 2 1692 1692_splitncnn_0 1692_splitncnn_1
Concat                   Concat_994               4 1 1684_splitncnn_2 1686_splitncnn_1 1689_splitncnn_1 1692_splitncnn_1 1693
Convolution              Conv_995                 1 1 1693 1695 0=32 1=3 4=1 5=1 6=46080 9=2 -23310=1,0.2
Concat                   Concat_997               5 1 1684_splitncnn_1 1686_splitncnn_0 1689_splitncnn_0 1692_splitncnn_0 1695 1696
Convolution              Conv_998                 1 1 1696 1697 0=64 1=3 4=1 5=1 6=110592
Eltwise                  Add_1001                 2 1 1697 1684_splitncnn_0 1700 0=1 -23301=2,0.2,1.0
Split                    splitncnn_236            1 6 1700 1700_splitncnn_0 1700_splitncnn_1 1700_splitncnn_2 1700_splitncnn_3 1700_splitncnn_4 1700_splitncnn_5
Convolution              Conv_1002                1 1 1700_splitncnn_5 1702 0=32 1=3 4=1 5=1 6=18432 9=2 -23310=1,0.2
Split                    splitncnn_237            1 4 1702 1702_splitncnn_0 1702_splitncnn_1 1702_splitncnn_2 1702_splitncnn_3
Concat                   Concat_1004              2 1 1700_splitncnn_4 1702_splitncnn_3 1703
Convolution              Conv_1005                1 1 1703 1705 0=32 1=3 4=1 5=1 6=27648 9=2 -23310=1,0.2
Split                    splitncnn_238            1 3 1705 1705_splitncnn_0 1705_splitncnn_1 1705_splitncnn_2
Concat                   Concat_1007              3 1 1700_splitncnn_3 1702_splitncnn_2 1705_splitncnn_2 1706
Convolution              Conv_1008                1 1 1706 1708 0=32 1=3 4=1 5=1 6=36864 9=2 -23310=1,0.2
Split                    splitncnn_239            1 2 1708 1708_splitncnn_0 1708_splitncnn_1
Concat                   Concat_1010              4 1 1700_splitncnn_2 1702_splitncnn_1 1705_splitncnn_1 1708_splitncnn_1 1709
Convolution              Conv_1011                1 1 1709 1711 0=32 1=3 4=1 5=1 6=46080 9=2 -23310=1,0.2
Concat                   Concat_1013              5 1 1700_splitncnn_1 1702_splitncnn_0 1705_splitncnn_0 1708_splitncnn_0 1711 1712
Convolution              Conv_1014                1 1 1712 1713 0=64 1=3 4=1 5=1 6=110592
Eltwise                  Add_1017                 2 1 1713 1700_splitncnn_0 1716 0=1 -23301=2,0.2,1.0
Eltwise                  Add_1020                 2 1 1716 1668_splitncnn_0 1719 0=1 -23301=2,0.2,1.0
Split                    splitncnn_240            1 7 1719 1719_splitncnn_0 1719_splitncnn_1 1719_splitncnn_2 1719_splitncnn_3 1719_splitncnn_4 1719_splitncnn_5 1719_splitncnn_6
Convolution              Conv_1021                1 1 1719_splitncnn_6 1721 0=32 1=3 4=1 5=1 6=18432 9=2 -23310=1,0.2
Split                    splitncnn_241            1 4 1721 1721_splitncnn_0 1721_splitncnn_1 1721_splitncnn_2 1721_splitncnn_3
Concat                   Concat_1023              2 1 1719_splitncnn_5 1721_splitncnn_3 1722
Convolution              Conv_1024                1 1 1722 1724 0=32 1=3 4=1 5=1 6=27648 9=2 -23310=1,0.2
Split                    splitncnn_242            1 3 1724 1724_splitncnn_0 1724_splitncnn_1 1724_splitncnn_2
Concat                   Concat_1026              3 1 1719_splitncnn_4 1721_splitncnn_2 1724_splitncnn_2 1725
Convolution              Conv_1027                1 1 1725 1727 0=32 1=3 4=1 5=1 6=36864 9=2 -23310=1,0.2
Split                    splitncnn_243            1 2 1727 1727_splitncnn_0 1727_splitncnn_1
Concat                   Concat_1029              4 1 1719_splitncnn_3 1721_splitncnn_1 1724_splitncnn_1 1727_splitncnn_1 1728
Convolution              Conv_1030                1 1 1728 1730 0=32 1=3 4=1 5=1 6=46080 9=2 -23310=1,0.2
Concat                   Concat_1032              5 1 1719_splitncnn_2 1721_splitncnn_0 1724_splitncnn_0 1727_splitncnn_0 1730 1731
Convolution              Conv_1033                1 1 1731 1732 0=64 1=3 4=1 5=1 6=110592
Eltwise                  Add_1036                 2 1 1732 1719_splitncnn_1 1735 0=1 -23301=2,0.2,1.0
Split                    splitncnn_244            1 6 1735 1735_splitncnn_0 1735_splitncnn_1 1735_splitncnn_2 1735_splitncnn_3 1735_splitncnn_4 1735_splitncnn_5
Convolution              Conv_1037                1 1 1735_splitncnn_5 1737 0=32 1=3 4=1 5=1 6=18432 9=2 -23310=1,0.2
Split                    splitncnn_245            1 4 1737 1737_splitncnn_0 1737_splitncnn_1 1737_splitncnn_2 1737_splitncnn_3
Concat                   Concat_1039              2 1 1735_splitncnn_4 1737_splitncnn_3 1738
Convolution              Conv_1040                1 1 1738 1740 0=32 1=3 4=1 5=1 6=27648 9=2 -23310=1,0.2
Split                    splitncnn_246            1 3 1740 1740_splitncnn_0 1740_splitncnn_1 1740_splitncnn_2
Concat                   Concat_1042              3 1 1735_splitncnn_3 1737_splitncnn_2 1740_splitncnn_2 1741
Convolution              Conv_1043                1 1 1741 1743 0=32 1=3 4=1 5=1 6=36864 9=2 -23310=1,0.2
Split                    splitncnn_247            1 2 1743 1743_splitncnn_0 1743_splitncnn_1
Concat                   Concat_1045              4 1 1735_splitncnn_2 1737_splitncnn_1 1740_splitncnn_1 1743_splitncnn_1 1744
Convolution              Conv_1046                1 1 1744 1746 0=32 1=3 4=1 5=1 6=46080 9=2 -23310=1,0.2
Concat                   Concat_1048              5 1 1735_splitncnn_1 1737_splitncnn_0 1740_splitncnn_0 1743_splitncnn_0 1746 1747
Convolution              Conv_1049                1 1 1747 1748 0=64 1=3 4=1 5=1 6=110592
Eltwise                  Add_1052                 2 1 1748 1735_splitncnn_0 1751 0=1 -23301=2,0.2,1.0
Split                    splitncnn_248            1 6 1751 1751_splitncnn_0 1751_splitncnn_1 1751_splitncnn_2 1751_splitncnn_3 1751_splitncnn_4 1751_splitncnn_5
Convolution              Conv_1053                1 1 1751_splitncnn_5 1753 0=32 1=3 4=1 5=1 6=18432 9=2 -23310=1,0.2
Split                    splitncnn_249            1 4 1753 1753_splitncnn_0 1753_splitncnn_1 1753_splitncnn_2 1753_splitncnn_3
Concat                   Concat_1055              2 1 1751_splitncnn_4 1753_splitncnn_3 1754
Convolution              Conv_1056                1 1 1754 1756 0=32 1=3 4=1 5=1 6=27648 9=2 -23310=1,0.2
Split                    splitncnn_250            1 3 1756 1756_splitncnn_0 1756_splitncnn_1 1756_splitncnn_2
Concat                   Concat_1058              3 1 1751_splitncnn_3 1753_splitncnn_2 1756_splitncnn_2 1757
Convolution              Conv_1059                1 1 1757 1759 0=32 1=3 4=1 5=1 6=36864 9=2 -23310=1,0.2
Split                    splitncnn_251            1 2 1759 1759_splitncnn_0 1759_splitncnn_1
Concat                   Concat_1061              4 1 1751_splitncnn_2 1753_splitncnn_1 1756_splitncnn_1 1759_splitncnn_1 1760
Convolution              Conv_1062                1 1 1760 1762 0=32 1=3 4=1 5=1 6=46080 9=2 -23310=1,0.2
Concat                   Concat_1064              5 1 1751_splitncnn_1 1753_splitncnn_0 1756_splitncnn_0 1759_splitncnn_0 1762 1763
Convolution              Conv_1065                1 1 1763 1764 0=64 1=3 4=1 5=1 6=110592
Eltwise                  Add_1068                 2 1 1764 1751_splitncnn_0 1767 0=1 -23301=2,0.2,1.0
Eltwise                  Add_1071                 2 1 1767 1719_splitncnn_0 1770 0=1 -23301=2,0.2,1.0
Split                    splitncnn_252            1 7 1770 1770_splitncnn_0 1770_splitncnn_1 1770_splitncnn_2 1770_splitncnn_3 1770_splitncnn_4 1770_splitncnn_5 1770_splitncnn_6
Convolution              Conv_1072                1 1 1770_splitncnn_6 1772 0=32 1=3 4=1 5=1 6=18432 9=2 -23310=1,0.2
Split                    splitncnn_253            1 4 1772 1772_splitncnn_0 1772_splitncnn_1 1772_splitncnn_2 1772_splitncnn_3
Concat                   Concat_1074              2 1 1770_splitncnn_5 1772_splitncnn_3 1773
Convolution              Conv_1075                1 1 1773 1775 0=32 1=3 4=1 5=1 6=27648 9=2 -23310=1,0.2
Split                    splitncnn_254            1 3 1775 1775_splitncnn_0 1775_splitncnn_1 1775_splitncnn_2
Concat                   Concat_1077              3 1 1770_splitncnn_4 1772_splitncnn_2 1775_splitncnn_2 1776
Convolution              Conv_1078                1 1 1776 1778 0=32 1=3 4=1 5=1 6=36864 9=2 -23310=1,0.2
Split                    splitncnn_255            1 2 1778 1778_splitncnn_0 1778_splitncnn_1
Concat                   Concat_1080              4 1 1770_splitncnn_3 1772_splitncnn_1 1775_splitncnn_1 1778_splitncnn_1 1779
Convolution              Conv_1081                1 1 1779 1781 0=32 1=3 4=1 5=1 6=46080 9=2 -23310=1,0.2
Concat                   Concat_1083              5 1 1770_splitncnn_2 1772_splitncnn_0 1775_splitncnn_0 1778_splitncnn_0 1781 1782
Convolution              Conv_1084                1 1 1782 1783 0=64 1=3 4=1 5=1 6=110592
Eltwise                  Add_1087                 2 1 1783 1770_splitncnn_1 1786 0=1 -23301=2,0.2,1.0
Split                    splitncnn_256            1 6 1786 1786_splitncnn_0 1786_splitncnn_1 1786_splitncnn_2 1786_splitncnn_3 1786_splitncnn_4 1786_splitncnn_5
Convolution              Conv_1088                1 1 1786_splitncnn_5 1788 0=32 1=3 4=1 5=1 6=18432 9=2 -23310=1,0.2
Split                    splitncnn_257            1 4 1788 1788_splitncnn_0 1788_splitncnn_1 1788_splitncnn_2 1788_splitncnn_3
Concat                   Concat_1090              2 1 1786_splitncnn_4 1788_splitncnn_3 1789
Convolution              Conv_1091                1 1 1789 1791 0=32 1=3 4=1 5=1 6=27648 9=2 -23310=1,0.2
Split                    splitncnn_258            1 3 1791 1791_splitncnn_0 1791_splitncnn_1 1791_splitncnn_2
Concat                   Concat_1093              3 1 1786_splitncnn_3 1788_splitncnn_2 1791_splitncnn_2 1792
Convolution              Conv_1094                1 1 1792 1794 0=32 1=3 4=1 5=1 6=36864 9=2 -23310=1,0.2
Split                    splitncnn_259            1 2 1794 1794_splitncnn_0 1794_splitncnn_1
Concat                   Concat_1096              4 1 1786_splitncnn_2 1788_splitncnn_1 1791_splitncnn_1 1794_splitncnn_1 1795
Convolution              Conv_1097                1 1 1795 1797 0=32 1=3 4=1 5=1 6=46080 9=2 -23310=1,0.2
Concat                   Concat_1099              5 1 1786_splitncnn_1 1788_splitncnn_0 1791_splitncnn_0 1794_splitncnn_0 1797 1798
Convolution              Conv_1100                1 1 1798 1799 0=64 1=3 4=1 5=1 6=110592
Eltwise                  Add_1103                 2 1 1799 1786_splitncnn_0 1802 0=1 -23301=2,0.2,1.0
Split                    splitncnn_260            1 6 1802 1802_splitncnn_0 1802_splitncnn_1 1802_splitncnn_2 1802_splitncnn_3 1802_splitncnn_4 1802_splitncnn_5
Convolution              Conv_1104                1 1 1802_splitncnn_5 1804 0=32 1=3 4=1 5=1 6=18432 9=2 -23310=1,0.2
Split                    splitncnn_261            1 4 1804 1804_splitncnn_0 1804_splitncnn_1 1804_splitncnn_2 1804_splitncnn_3
Concat                   Concat_1106              2 1 1802_splitncnn_4 1804_splitncnn_3 1805
Convolution              Conv_1107                1 1 1805 1807 0=32 1=3 4=1 5=1 6=27648 9=2 -23310=1,0.2
Split                    splitncnn_262            1 3 1807 1807_splitncnn_0 1807_splitncnn_1 1807_splitncnn_2
Concat                   Concat_1109              3 1 1802_splitncnn_3 1804_splitncnn_2 1807_splitncnn_2 1808
Convolution              Conv_1110                1 1 1808 1810 0=32 1=3 4=1 5=1 6=36864 9=2 -23310=1,0.2
Split                    splitncnn_263            1 2 1810 1810_splitncnn_0 1810_splitncnn_1
Concat                   Concat_1112              4 1 1802_splitncnn_2 1804_splitncnn_1 1807_splitncnn_1 1810_splitncnn_1 1811
Convolution              Conv_1113                1 1 1811 1813 0=32 1=3 4=1 5=1 6=46080 9=2 -23310=1,0.2
Concat                   Concat_1115              5 1 1802_splitncnn_1 1804_splitncnn_0 1807_splitncnn_0 1810_splitncnn_0 1813 1814
Convolution              Conv_1116                1 1 1814 1815 0=64 1=3 4=1 5=1 6=110592
Eltwise                  Add_1119                 2 1 1815 1802_splitncnn_0 1818 0=1 -23301=2,0.2,1.0
Eltwise                  Add_1122                 2 1 1818 1770_splitncnn_0 1821 0=1 -23301=2,0.2,1.0
Split                    splitncnn_264            1 7 1821 1821_splitncnn_0 1821_splitncnn_1 1821_splitncnn_2 1821_splitncnn_3 1821_splitncnn_4 1821_splitncnn_5 1821_splitncnn_6
Convolution              Conv_1123                1 1 1821_splitncnn_6 1823 0=32 1=3 4=1 5=1 6=18432 9=2 -23310=1,0.2
Split                    splitncnn_265            1 4 1823 1823_splitncnn_0 1823_splitncnn_1 1823_splitncnn_2 1823_splitncnn_3
Concat                   Concat_1125              2 1 1821_splitncnn_5 1823_splitncnn_3 1824
Convolution              Conv_1126                1 1 1824 1826 0=32 1=3 4=1 5=1 6=27648 9=2 -23310=1,0.2
Split                    splitncnn_266            1 3 1826 1826_splitncnn_0 1826_splitncnn_1 1826_splitncnn_2
Concat                   Concat_1128              3 1 1821_splitncnn_4 1823_splitncnn_2 1826_splitncnn_2 1827
Convolution              Conv_1129                1 1 1827 1829 0=32 1=3 4=1 5=1 6=36864 9=2 -23310=1,0.2
Split                    splitncnn_267            1 2 1829 1829_splitncnn_0 1829_splitncnn_1
Concat                   Concat_1131              4 1 1821_splitncnn_3 1823_splitncnn_1 1826_splitncnn_1 1829_splitncnn_1 1830
Convolution              Conv_1132                1 1 1830 1832 0=32 1=3 4=1 5=1 6=46080 9=2 -23310=1,0.2
Concat                   Concat_1134              5 1 1821_splitncnn_2 1823_splitncnn_0 1826_splitncnn_0 1829_splitncnn_0 1832 1833
Convolution              Conv_1135                1 1 1833 1834 0=64 1=3 4=1 5=1 6=110592
Eltwise                  Add_1138                 2 1 1834 1821_splitncnn_1 1837 0=1 -23301=2,0.2,1.0
Split                    splitncnn_268            1 6 1837 1837_splitncnn_0 1837_splitncnn_1 1837_splitncnn_2 1837_splitncnn_3 1837_splitncnn_4 1837_splitncnn_5
Convolution              Conv_1139                1 1 1837_splitncnn_5 1839 0=32 1=3 4=1 5=1 6=18432 9=2 -23310=1,0.2
Split                    splitncnn_269            1 4 1839 1839_splitncnn_0 1839_splitncnn_1 1839_splitncnn_2 1839_splitncnn_3
Concat                   Concat_1141              2 1 1837_splitncnn_4 1839_splitncnn_3 1840
Convolution              Conv_1142                1 1 1840 1842 0=32 1=3 4=1 5=1 6=27648 9=2 -23310=1,0.2
Split                    splitncnn_270            1 3 1842 1842_splitncnn_0 1842_splitncnn_1 1842_splitncnn_2
Concat                   Concat_1144              3 1 1837_splitncnn_3 1839_splitncnn_2 1842_splitncnn_2 1843
Convolution              Conv_1145                1 1 1843 1845 0=32 1=3 4=1 5=1 6=36864 9=2 -23310=1,0.2
Split                    splitncnn_271            1 2 1845 1845_splitncnn_0 1845_splitncnn_1
Concat                   Concat_1147              4 1 1837_splitncnn_2 1839_splitncnn_1 1842_splitncnn_1 1845_splitncnn_1 1846
Convolution              Conv_1148                1 1 1846 1848 0=32 1=3 4=1 5=1 6=46080 9=2 -23310=1,0.2
Concat                   Concat_1150              5 1 1837_splitncnn_1 1839_splitncnn_0 1842_splitncnn_0 1845_splitncnn_0 1848 1849
Convolution              Conv_1151                1 1 1849 1850 0=64 1=3 4=1 5=1 6=110592
Eltwise                  Add_1154                 2 1 1850 1837_splitncnn_0 1853 0=1 -23301=2,0.2,1.0
Split                    splitncnn_272            1 6 1853 1853_splitncnn_0 1853_splitncnn_1 1853_splitncnn_2 1853_splitncnn_3 1853_splitncnn_4 1853_splitncnn_5
Convolution              Conv_1155                1 1 1853_splitncnn_5 1855 0=32 1=3 4=1 5=1 6=18432 9=2 -23310=1,0.2
Split                    splitncnn_273            1 4 1855 1855_splitncnn_0 1855_splitncnn_1 1855_splitncnn_2 1855_splitncnn_3
Concat                   Concat_1157              2 1 1853_splitncnn_4 1855_splitncnn_3 1856
Convolution              Conv_1158                1 1 1856 1858 0=32 1=3 4=1 5=1 6=27648 9=2 -23310=1,0.2
Split                    splitncnn_274            1 3 1858 1858_splitncnn_0 1858_splitncnn_1 1858_splitncnn_2
Concat                   Concat_1160              3 1 1853_splitncnn_3 1855_splitncnn_2 1858_splitncnn_2 1859
Convolution              Conv_1161                1 1 1859 1861 0=32 1=3 4=1 5=1 6=36864 9=2 -23310=1,0.2
Split                    splitncnn_275            1 2 1861 1861_splitncnn_0 1861_splitncnn_1
Concat                   Concat_1163              4 1 1853_splitncnn_2 1855_splitncnn_1 1858_splitncnn_1 1861_splitncnn_1 1862
Convolution              Conv_1164                1 1 1862 1864 0=32 1=3 4=1 5=1 6=46080 9=2 -23310=1,0.2
Concat                   Concat_1166              5 1 1853_splitncnn_1 1855_splitncnn_0 1858_splitncnn_0 1861_splitncnn_0 1864 1865
Convolution              Conv_1167                1 1 1865 1866 0=64 1=3 4=1 5=1 6=110592
Eltwise                  Add_1170                 2 1 1866 1853_splitncnn_0 1869 0=1 -23301=2,0.2,1.0
Eltwise                  Add_1173                 2 1 1869 1821_splitncnn_0 1872 0=1 -23301=2,0.2,1.0
Convolution              Conv_1174                1 1 1872 1873 0=64 1=3 4=1 5=1 6=36864
BinaryOp                 Add_1175                 2 1 699_splitncnn_0 1873 1874
Convolution              Conv_1176                1 1 1874 1876 0=64 1=3 4=1 5=1 6=36864 9=2 -23310=1,0.2
Convolution              Conv_1178                1 1 1876 output 0=3 1=3 4=1 5=1 6=1728
