7767517
997 1780
Input                    input.1                  0 1 data
Convolution              Conv_0                   1 1 data 701 0=64 1=3 4=1 5=1 6=1728
Split                    splitncnn_0              1 8 701 701_splitncnn_0 701_splitncnn_1 701_splitncnn_2 701_splitncnn_3 701_splitncnn_4 701_splitncnn_5 701_splitncnn_6 701_splitncnn_7
Convolution              Conv_1                   1 1 701_splitncnn_7 703 0=32 1=3 4=1 5=1 6=18432 9=2 -23310=1,0.2
Split                    splitncnn_1              1 4 703 703_splitncnn_0 703_splitncnn_1 703_splitncnn_2 703_splitncnn_3
Concat                   Concat_3                 2 1 701_splitncnn_6 703_splitncnn_3 704
Convolution              Conv_4                   1 1 704 706 0=32 1=3 4=1 5=1 6=27648 9=2 -23310=1,0.2
Split                    splitncnn_2              1 3 706 706_splitncnn_0 706_splitncnn_1 706_splitncnn_2
Concat                   Concat_6                 3 1 701_splitncnn_5 703_splitncnn_2 706_splitncnn_2 707
Convolution              Conv_7                   1 1 707 709 0=32 1=3 4=1 5=1 6=36864 9=2 -23310=1,0.2
Split                    splitncnn_3              1 2 709 709_splitncnn_0 709_splitncnn_1
Concat                   Concat_9                 4 1 701_splitncnn_4 703_splitncnn_1 706_splitncnn_1 709_splitncnn_1 710
Convolution              Conv_10                  1 1 710 712 0=32 1=3 4=1 5=1 6=46080 9=2 -23310=1,0.2
Concat                   Concat_12                5 1 701_splitncnn_3 703_splitncnn_0 706_splitncnn_0 709_splitncnn_0 712 713
Convolution              Conv_13                  1 1 713 714 0=64 1=3 4=1 5=1 6=110592
Eltwise                  Add_16                   2 1 714 701_splitncnn_2 717 0=1 -23301=2,0.2,1.0
Split                    splitncnn_4              1 6 717 717_splitncnn_0 717_splitncnn_1 717_splitncnn_2 717_splitncnn_3 717_splitncnn_4 717_splitncnn_5
Convolution              Conv_17                  1 1 717_splitncnn_5 719 0=32 1=3 4=1 5=1 6=18432 9=2 -23310=1,0.2
Split                    splitncnn_5              1 4 719 719_splitncnn_0 719_splitncnn_1 719_splitncnn_2 719_splitncnn_3
Concat                   Concat_19                2 1 717_splitncnn_4 719_splitncnn_3 720
Convolution              Conv_20                  1 1 720 722 0=32 1=3 4=1 5=1 6=27648 9=2 -23310=1,0.2
Split                    splitncnn_6              1 3 722 722_splitncnn_0 722_splitncnn_1 722_splitncnn_2
Concat                   Concat_22                3 1 717_splitncnn_3 719_splitncnn_2 722_splitncnn_2 723
Convolution              Conv_23                  1 1 723 725 0=32 1=3 4=1 5=1 6=36864 9=2 -23310=1,0.2
Split                    splitncnn_7              1 2 725 725_splitncnn_0 725_splitncnn_1
Concat                   Concat_25                4 1 717_splitncnn_2 719_splitncnn_1 722_splitncnn_1 725_splitncnn_1 726
Convolution              Conv_26                  1 1 726 728 0=32 1=3 4=1 5=1 6=46080 9=2 -23310=1,0.2
Concat                   Concat_28                5 1 717_splitncnn_1 719_splitncnn_0 722_splitncnn_0 725_splitncnn_0 728 729
Convolution              Conv_29                  1 1 729 730 0=64 1=3 4=1 5=1 6=110592
Eltwise                  Add_32                   2 1 730 717_splitncnn_0 733 0=1 -23301=2,0.2,1.0
Split                    splitncnn_8              1 6 733 733_splitncnn_0 733_splitncnn_1 733_splitncnn_2 733_splitncnn_3 733_splitncnn_4 733_splitncnn_5
Convolution              Conv_33                  1 1 733_splitncnn_5 735 0=32 1=3 4=1 5=1 6=18432 9=2 -23310=1,0.2
Split                    splitncnn_9              1 4 735 735_splitncnn_0 735_splitncnn_1 735_splitncnn_2 735_splitncnn_3
Concat                   Concat_35                2 1 733_splitncnn_4 735_splitncnn_3 736
Convolution              Conv_36                  1 1 736 738 0=32 1=3 4=1 5=1 6=27648 9=2 -23310=1,0.2
Split                    splitncnn_10             1 3 738 738_splitncnn_0 738_splitncnn_1 738_splitncnn_2
Concat                   Concat_38                3 1 733_splitncnn_3 735_splitncnn_2 738_splitncnn_2 739
Convolution              Conv_39                  1 1 739 741 0=32 1=3 4=1 5=1 6=36864 9=2 -23310=1,0.2
Split                    splitncnn_11             1 2 741 741_splitncnn_0 741_splitncnn_1
Concat                   Concat_41                4 1 733_splitncnn_2 735_splitncnn_1 738_splitncnn_1 741_splitncnn_1 742
Convolution              Conv_42                  1 1 742 744 0=32 1=3 4=1 5=1 6=46080 9=2 -23310=1,0.2
Concat                   Concat_44                5 1 733_splitncnn_1 735_splitncnn_0 738_splitncnn_0 741_splitncnn_0 744 745
Convolution              Conv_45                  1 1 745 746 0=64 1=3 4=1 5=1 6=110592
Eltwise                  Add_48                   2 1 746 733_splitncnn_0 749 0=1 -23301=2,0.2,1.0
Eltwise                  Add_51                   2 1 749 701_splitncnn_1 752 0=1 -23301=2,0.2,1.0
Split                    splitncnn_12             1 7 752 752_splitncnn_0 752_splitncnn_1 752_splitncnn_2 752_splitncnn_3 752_splitncnn_4 752_splitncnn_5 752_splitncnn_6
Convolution              Conv_52                  1 1 752_splitncnn_6 754 0=32 1=3 4=1 5=1 6=18432 9=2 -23310=1,0.2
Split                    splitncnn_13             1 4 754 754_splitncnn_0 754_splitncnn_1 754_splitncnn_2 754_splitncnn_3
Concat                   Concat_54                2 1 752_splitncnn_5 754_splitncnn_3 755
Convolution              Conv_55                  1 1 755 757 0=32 1=3 4=1 5=1 6=27648 9=2 -23310=1,0.2
Split                    splitncnn_14             1 3 757 757_splitncnn_0 757_splitncnn_1 757_splitncnn_2
Concat                   Concat_57                3 1 752_splitncnn_4 754_splitncnn_2 757_splitncnn_2 758
Convolution              Conv_58                  1 1 758 760 0=32 1=3 4=1 5=1 6=36864 9=2 -23310=1,0.2
Split                    splitncnn_15             1 2 760 760_splitncnn_0 760_splitncnn_1
Concat                   Concat_60                4 1 752_splitncnn_3 754_splitncnn_1 757_splitncnn_1 760_splitncnn_1 761
Convolution              Conv_61                  1 1 761 763 0=32 1=3 4=1 5=1 6=46080 9=2 -23310=1,0.2
Concat                   Concat_63                5 1 752_splitncnn_2 754_splitncnn_0 757_splitncnn_0 760_splitncnn_0 763 764
Convolution              Conv_64                  1 1 764 765 0=64 1=3 4=1 5=1 6=110592
Eltwise                  Add_67                   2 1 765 752_splitncnn_1 768 0=1 -23301=2,0.2,1.0
Split                    splitncnn_16             1 6 768 768_splitncnn_0 768_splitncnn_1 768_splitncnn_2 768_splitncnn_3 768_splitncnn_4 768_splitncnn_5
Convolution              Conv_68                  1 1 768_splitncnn_5 770 0=32 1=3 4=1 5=1 6=18432 9=2 -23310=1,0.2
Split                    splitncnn_17             1 4 770 770_splitncnn_0 770_splitncnn_1 770_splitncnn_2 770_splitncnn_3
Concat                   Concat_70                2 1 768_splitncnn_4 770_splitncnn_3 771
Convolution              Conv_71                  1 1 771 773 0=32 1=3 4=1 5=1 6=27648 9=2 -23310=1,0.2
Split                    splitncnn_18             1 3 773 773_splitncnn_0 773_splitncnn_1 773_splitncnn_2
Concat                   Concat_73                3 1 768_splitncnn_3 770_splitncnn_2 773_splitncnn_2 774
Convolution              Conv_74                  1 1 774 776 0=32 1=3 4=1 5=1 6=36864 9=2 -23310=1,0.2
Split                    splitncnn_19             1 2 776 776_splitncnn_0 776_splitncnn_1
Concat                   Concat_76                4 1 768_splitncnn_2 770_splitncnn_1 773_splitncnn_1 776_splitncnn_1 777
Convolution              Conv_77                  1 1 777 779 0=32 1=3 4=1 5=1 6=46080 9=2 -23310=1,0.2
Concat                   Concat_79                5 1 768_splitncnn_1 770_splitncnn_0 773_splitncnn_0 776_splitncnn_0 779 780
Convolution              Conv_80                  1 1 780 781 0=64 1=3 4=1 5=1 6=110592
Eltwise                  Add_83                   2 1 781 768_splitncnn_0 784 0=1 -23301=2,0.2,1.0
Split                    splitncnn_20             1 6 784 784_splitncnn_0 784_splitncnn_1 784_splitncnn_2 784_splitncnn_3 784_splitncnn_4 784_splitncnn_5
Convolution              Conv_84                  1 1 784_splitncnn_5 786 0=32 1=3 4=1 5=1 6=18432 9=2 -23310=1,0.2
Split                    splitncnn_21             1 4 786 786_splitncnn_0 786_splitncnn_1 786_splitncnn_2 786_splitncnn_3
Concat                   Concat_86                2 1 784_splitncnn_4 786_splitncnn_3 787
Convolution              Conv_87                  1 1 787 789 0=32 1=3 4=1 5=1 6=27648 9=2 -23310=1,0.2
Split                    splitncnn_22             1 3 789 789_splitncnn_0 789_splitncnn_1 789_splitncnn_2
Concat                   Concat_89                3 1 784_splitncnn_3 786_splitncnn_2 789_splitncnn_2 790
Convolution              Conv_90                  1 1 790 792 0=32 1=3 4=1 5=1 6=36864 9=2 -23310=1,0.2
Split                    splitncnn_23             1 2 792 792_splitncnn_0 792_splitncnn_1
Concat                   Concat_92                4 1 784_splitncnn_2 786_splitncnn_1 789_splitncnn_1 792_splitncnn_1 793
Convolution              Conv_93                  1 1 793 795 0=32 1=3 4=1 5=1 6=46080 9=2 -23310=1,0.2
Concat                   Concat_95                5 1 784_splitncnn_1 786_splitncnn_0 789_splitncnn_0 792_splitncnn_0 795 796
Convolution              Conv_96                  1 1 796 797 0=64 1=3 4=1 5=1 6=110592
Eltwise                  Add_99                   2 1 797 784_splitncnn_0 800 0=1 -23301=2,0.2,1.0
Eltwise                  Add_102                  2 1 800 752_splitncnn_0 803 0=1 -23301=2,0.2,1.0
Split                    splitncnn_24             1 7 803 803_splitncnn_0 803_splitncnn_1 803_splitncnn_2 803_splitncnn_3 803_splitncnn_4 803_splitncnn_5 803_splitncnn_6
Convolution              Conv_103                 1 1 803_splitncnn_6 805 0=32 1=3 4=1 5=1 6=18432 9=2 -23310=1,0.2
Split                    splitncnn_25             1 4 805 805_splitncnn_0 805_splitncnn_1 805_splitncnn_2 805_splitncnn_3
Concat                   Concat_105               2 1 803_splitncnn_5 805_splitncnn_3 806
Convolution              Conv_106                 1 1 806 808 0=32 1=3 4=1 5=1 6=27648 9=2 -23310=1,0.2
Split                    splitncnn_26             1 3 808 808_splitncnn_0 808_splitncnn_1 808_splitncnn_2
Concat                   Concat_108               3 1 803_splitncnn_4 805_splitncnn_2 808_splitncnn_2 809
Convolution              Conv_109                 1 1 809 811 0=32 1=3 4=1 5=1 6=36864 9=2 -23310=1,0.2
Split                    splitncnn_27             1 2 811 811_splitncnn_0 811_splitncnn_1
Concat                   Concat_111               4 1 803_splitncnn_3 805_splitncnn_1 808_splitncnn_1 811_splitncnn_1 812
Convolution              Conv_112                 1 1 812 814 0=32 1=3 4=1 5=1 6=46080 9=2 -23310=1,0.2
Concat                   Concat_114               5 1 803_splitncnn_2 805_splitncnn_0 808_splitncnn_0 811_splitncnn_0 814 815
Convolution              Conv_115                 1 1 815 816 0=64 1=3 4=1 5=1 6=110592
Eltwise                  Add_118                  2 1 816 803_splitncnn_1 819 0=1 -23301=2,0.2,1.0
Split                    splitncnn_28             1 6 819 819_splitncnn_0 819_splitncnn_1 819_splitncnn_2 819_splitncnn_3 819_splitncnn_4 819_splitncnn_5
Convolution              Conv_119                 1 1 819_splitncnn_5 821 0=32 1=3 4=1 5=1 6=18432 9=2 -23310=1,0.2
Split                    splitncnn_29             1 4 821 821_splitncnn_0 821_splitncnn_1 821_splitncnn_2 821_splitncnn_3
Concat                   Concat_121               2 1 819_splitncnn_4 821_splitncnn_3 822
Convolution              Conv_122                 1 1 822 824 0=32 1=3 4=1 5=1 6=27648 9=2 -23310=1,0.2
Split                    splitncnn_30             1 3 824 824_splitncnn_0 824_splitncnn_1 824_splitncnn_2
Concat                   Concat_124               3 1 819_splitncnn_3 821_splitncnn_2 824_splitncnn_2 825
Convolution              Conv_125                 1 1 825 827 0=32 1=3 4=1 5=1 6=36864 9=2 -23310=1,0.2
Split                    splitncnn_31             1 2 827 827_splitncnn_0 827_splitncnn_1
Concat                   Concat_127               4 1 819_splitncnn_2 821_splitncnn_1 824_splitncnn_1 827_splitncnn_1 828
Convolution              Conv_128                 1 1 828 830 0=32 1=3 4=1 5=1 6=46080 9=2 -23310=1,0.2
Concat                   Concat_130               5 1 819_splitncnn_1 821_splitncnn_0 824_splitncnn_0 827_splitncnn_0 830 831
Convolution              Conv_131                 1 1 831 832 0=64 1=3 4=1 5=1 6=110592
Eltwise                  Add_134                  2 1 832 819_splitncnn_0 835 0=1 -23301=2,0.2,1.0
Split                    splitncnn_32             1 6 835 835_splitncnn_0 835_splitncnn_1 835_splitncnn_2 835_splitncnn_3 835_splitncnn_4 835_splitncnn_5
Convolution              Conv_135                 1 1 835_splitncnn_5 837 0=32 1=3 4=1 5=1 6=18432 9=2 -23310=1,0.2
Split                    splitncnn_33             1 4 837 837_splitncnn_0 837_splitncnn_1 837_splitncnn_2 837_splitncnn_3
Concat                   Concat_137               2 1 835_splitncnn_4 837_splitncnn_3 838
Convolution              Conv_138                 1 1 838 840 0=32 1=3 4=1 5=1 6=27648 9=2 -23310=1,0.2
Split                    splitncnn_34             1 3 840 840_splitncnn_0 840_splitncnn_1 840_splitncnn_2
Concat                   Concat_140               3 1 835_splitncnn_3 837_splitncnn_2 840_splitncnn_2 841
Convolution              Conv_141                 1 1 841 843 0=32 1=3 4=1 5=1 6=36864 9=2 -23310=1,0.2
Split                    splitncnn_35             1 2 843 843_splitncnn_0 843_splitncnn_1
Concat                   Concat_143               4 1 835_splitncnn_2 837_splitncnn_1 840_splitncnn_1 843_splitncnn_1 844
Convolution              Conv_144                 1 1 844 846 0=32 1=3 4=1 5=1 6=46080 9=2 -23310=1,0.2
Concat                   Concat_146               5 1 835_splitncnn_1 837_splitncnn_0 840_splitncnn_0 843_splitncnn_0 846 847
Convolution              Conv_147                 1 1 847 848 0=64 1=3 4=1 5=1 6=110592
Eltwise                  Add_150                  2 1 848 835_splitncnn_0 851 0=1 -23301=2,0.2,1.0
Eltwise                  Add_153                  2 1 851 803_splitncnn_0 854 0=1 -23301=2,0.2,1.0
Split                    splitncnn_36             1 7 854 854_splitncnn_0 854_splitncnn_1 854_splitncnn_2 854_splitncnn_3 854_splitncnn_4 854_splitncnn_5 854_splitncnn_6
Convolution              Conv_154                 1 1 854_splitncnn_6 856 0=32 1=3 4=1 5=1 6=18432 9=2 -23310=1,0.2
Split                    splitncnn_37             1 4 856 856_splitncnn_0 856_splitncnn_1 856_splitncnn_2 856_splitncnn_3
Concat                   Concat_156               2 1 854_splitncnn_5 856_splitncnn_3 857
Convolution              Conv_157                 1 1 857 859 0=32 1=3 4=1 5=1 6=27648 9=2 -23310=1,0.2
Split                    splitncnn_38             1 3 859 859_splitncnn_0 859_splitncnn_1 859_splitncnn_2
Concat                   Concat_159               3 1 854_splitncnn_4 856_splitncnn_2 859_splitncnn_2 860
Convolution              Conv_160                 1 1 860 862 0=32 1=3 4=1 5=1 6=36864 9=2 -23310=1,0.2
Split                    splitncnn_39             1 2 862 862_splitncnn_0 862_splitncnn_1
Concat                   Concat_162               4 1 854_splitncnn_3 856_splitncnn_1 859_splitncnn_1 862_splitncnn_1 863
Convolution              Conv_163                 1 1 863 865 0=32 1=3 4=1 5=1 6=46080 9=2 -23310=1,0.2
Concat                   Concat_165               5 1 854_splitncnn_2 856_splitncnn_0 859_splitncnn_0 862_splitncnn_0 865 866
Convolution              Conv_166                 1 1 866 867 0=64 1=3 4=1 5=1 6=110592
Eltwise                  Add_169                  2 1 867 854_splitncnn_1 870 0=1 -23301=2,0.2,1.0
Split                    splitncnn_40             1 6 870 870_splitncnn_0 870_splitncnn_1 870_splitncnn_2 870_splitncnn_3 870_splitncnn_4 870_splitncnn_5
Convolution              Conv_170                 1 1 870_splitncnn_5 872 0=32 1=3 4=1 5=1 6=18432 9=2 -23310=1,0.2
Split                    splitncnn_41             1 4 872 872_splitncnn_0 872_splitncnn_1 872_splitncnn_2 872_splitncnn_3
Concat                   Concat_172               2 1 870_splitncnn_4 872_splitncnn_3 873
Convolution              Conv_173                 1 1 873 875 0=32 1=3 4=1 5=1 6=27648 9=2 -23310=1,0.2
Split                    splitncnn_42             1 3 875 875_splitncnn_0 875_splitncnn_1 875_splitncnn_2
Concat                   Concat_175               3 1 870_splitncnn_3 872_splitncnn_2 875_splitncnn_2 876
Convolution              Conv_176                 1 1 876 878 0=32 1=3 4=1 5=1 6=36864 9=2 -23310=1,0.2
Split                    splitncnn_43             1 2 878 878_splitncnn_0 878_splitncnn_1
Concat                   Concat_178               4 1 870_splitncnn_2 872_splitncnn_1 875_splitncnn_1 878_splitncnn_1 879
Convolution              Conv_179                 1 1 879 881 0=32 1=3 4=1 5=1 6=46080 9=2 -23310=1,0.2
Concat                   Concat_181               5 1 870_splitncnn_1 872_splitncnn_0 875_splitncnn_0 878_splitncnn_0 881 882
Convolution              Conv_182                 1 1 882 883 0=64 1=3 4=1 5=1 6=110592
Eltwise                  Add_185                  2 1 883 870_splitncnn_0 886 0=1 -23301=2,0.2,1.0
Split                    splitncnn_44             1 6 886 886_splitncnn_0 886_splitncnn_1 886_splitncnn_2 886_splitncnn_3 886_splitncnn_4 886_splitncnn_5
Convolution              Conv_186                 1 1 886_splitncnn_5 888 0=32 1=3 4=1 5=1 6=18432 9=2 -23310=1,0.2
Split                    splitncnn_45             1 4 888 888_splitncnn_0 888_splitncnn_1 888_splitncnn_2 888_splitncnn_3
Concat                   Concat_188               2 1 886_splitncnn_4 888_splitncnn_3 889
Convolution              Conv_189                 1 1 889 891 0=32 1=3 4=1 5=1 6=27648 9=2 -23310=1,0.2
Split                    splitncnn_46             1 3 891 891_splitncnn_0 891_splitncnn_1 891_splitncnn_2
Concat                   Concat_191               3 1 886_splitncnn_3 888_splitncnn_2 891_splitncnn_2 892
Convolution              Conv_192                 1 1 892 894 0=32 1=3 4=1 5=1 6=36864 9=2 -23310=1,0.2
Split                    splitncnn_47             1 2 894 894_splitncnn_0 894_splitncnn_1
Concat                   Concat_194               4 1 886_splitncnn_2 888_splitncnn_1 891_splitncnn_1 894_splitncnn_1 895
Convolution              Conv_195                 1 1 895 897 0=32 1=3 4=1 5=1 6=46080 9=2 -23310=1,0.2
Concat                   Concat_197               5 1 886_splitncnn_1 888_splitncnn_0 891_splitncnn_0 894_splitncnn_0 897 898
Convolution              Conv_198                 1 1 898 899 0=64 1=3 4=1 5=1 6=110592
Eltwise                  Add_201                  2 1 899 886_splitncnn_0 902 0=1 -23301=2,0.2,1.0
Eltwise                  Add_204                  2 1 902 854_splitncnn_0 905 0=1 -23301=2,0.2,1.0
Split                    splitncnn_48             1 7 905 905_splitncnn_0 905_splitncnn_1 905_splitncnn_2 905_splitncnn_3 905_splitncnn_4 905_splitncnn_5 905_splitncnn_6
Convolution              Conv_205                 1 1 905_splitncnn_6 907 0=32 1=3 4=1 5=1 6=18432 9=2 -23310=1,0.2
Split                    splitncnn_49             1 4 907 907_splitncnn_0 907_splitncnn_1 907_splitncnn_2 907_splitncnn_3
Concat                   Concat_207               2 1 905_splitncnn_5 907_splitncnn_3 908
Convolution              Conv_208                 1 1 908 910 0=32 1=3 4=1 5=1 6=27648 9=2 -23310=1,0.2
Split                    splitncnn_50             1 3 910 910_splitncnn_0 910_splitncnn_1 910_splitncnn_2
Concat                   Concat_210               3 1 905_splitncnn_4 907_splitncnn_2 910_splitncnn_2 911
Convolution              Conv_211                 1 1 911 913 0=32 1=3 4=1 5=1 6=36864 9=2 -23310=1,0.2
Split                    splitncnn_51             1 2 913 913_splitncnn_0 913_splitncnn_1
Concat                   Concat_213               4 1 905_splitncnn_3 907_splitncnn_1 910_splitncnn_1 913_splitncnn_1 914
Convolution              Conv_214                 1 1 914 916 0=32 1=3 4=1 5=1 6=46080 9=2 -23310=1,0.2
Concat                   Concat_216               5 1 905_splitncnn_2 907_splitncnn_0 910_splitncnn_0 913_splitncnn_0 916 917
Convolution              Conv_217                 1 1 917 918 0=64 1=3 4=1 5=1 6=110592
Eltwise                  Add_220                  2 1 918 905_splitncnn_1 921 0=1 -23301=2,0.2,1.0
Split                    splitncnn_52             1 6 921 921_splitncnn_0 921_splitncnn_1 921_splitncnn_2 921_splitncnn_3 921_splitncnn_4 921_splitncnn_5
Convolution              Conv_221                 1 1 921_splitncnn_5 923 0=32 1=3 4=1 5=1 6=18432 9=2 -23310=1,0.2
Split                    splitncnn_53             1 4 923 923_splitncnn_0 923_splitncnn_1 923_splitncnn_2 923_splitncnn_3
Concat                   Concat_223               2 1 921_splitncnn_4 923_splitncnn_3 924
Convolution              Conv_224                 1 1 924 926 0=32 1=3 4=1 5=1 6=27648 9=2 -23310=1,0.2
Split                    splitncnn_54             1 3 926 926_splitncnn_0 926_splitncnn_1 926_splitncnn_2
Concat                   Concat_226               3 1 921_splitncnn_3 923_splitncnn_2 926_splitncnn_2 927
Convolution              Conv_227                 1 1 927 929 0=32 1=3 4=1 5=1 6=36864 9=2 -23310=1,0.2
Split                    splitncnn_55             1 2 929 929_splitncnn_0 929_splitncnn_1
Concat                   Concat_229               4 1 921_splitncnn_2 923_splitncnn_1 926_splitncnn_1 929_splitncnn_1 930
Convolution              Conv_230                 1 1 930 932 0=32 1=3 4=1 5=1 6=46080 9=2 -23310=1,0.2
Concat                   Concat_232               5 1 921_splitncnn_1 923_splitncnn_0 926_splitncnn_0 929_splitncnn_0 932 933
Convolution              Conv_233                 1 1 933 934 0=64 1=3 4=1 5=1 6=110592
Eltwise                  Add_236                  2 1 934 921_splitncnn_0 937 0=1 -23301=2,0.2,1.0
Split                    splitncnn_56             1 6 937 937_splitncnn_0 937_splitncnn_1 937_splitncnn_2 937_splitncnn_3 937_splitncnn_4 937_splitncnn_5
Convolution              Conv_237                 1 1 937_splitncnn_5 939 0=32 1=3 4=1 5=1 6=18432 9=2 -23310=1,0.2
Split                    splitncnn_57             1 4 939 939_splitncnn_0 939_splitncnn_1 939_splitncnn_2 939_splitncnn_3
Concat                   Concat_239               2 1 937_splitncnn_4 939_splitncnn_3 940
Convolution              Conv_240                 1 1 940 942 0=32 1=3 4=1 5=1 6=27648 9=2 -23310=1,0.2
Split                    splitncnn_58             1 3 942 942_splitncnn_0 942_splitncnn_1 942_splitncnn_2
Concat                   Concat_242               3 1 937_splitncnn_3 939_splitncnn_2 942_splitncnn_2 943
Convolution              Conv_243                 1 1 943 945 0=32 1=3 4=1 5=1 6=36864 9=2 -23310=1,0.2
Split                    splitncnn_59             1 2 945 945_splitncnn_0 945_splitncnn_1
Concat                   Concat_245               4 1 937_splitncnn_2 939_splitncnn_1 942_splitncnn_1 945_splitncnn_1 946
Convolution              Conv_246                 1 1 946 948 0=32 1=3 4=1 5=1 6=46080 9=2 -23310=1,0.2
Concat                   Concat_248               5 1 937_splitncnn_1 939_splitncnn_0 942_splitncnn_0 945_splitncnn_0 948 949
Convolution              Conv_249                 1 1 949 950 0=64 1=3 4=1 5=1 6=110592
Eltwise                  Add_252                  2 1 950 937_splitncnn_0 953 0=1 -23301=2,0.2,1.0
Eltwise                  Add_255                  2 1 953 905_splitncnn_0 956 0=1 -23301=2,0.2,1.0
Split                    splitncnn_60             1 7 956 956_splitncnn_0 956_splitncnn_1 956_splitncnn_2 956_splitncnn_3 956_splitncnn_4 956_splitncnn_5 956_splitncnn_6
Convolution              Conv_256                 1 1 956_splitncnn_6 958 0=32 1=3 4=1 5=1 6=18432 9=2 -23310=1,0.2
Split                    splitncnn_61             1 4 958 958_splitncnn_0 958_splitncnn_1 958_splitncnn_2 958_splitncnn_3
Concat                   Concat_258               2 1 956_splitncnn_5 958_splitncnn_3 959
Convolution              Conv_259                 1 1 959 961 0=32 1=3 4=1 5=1 6=27648 9=2 -23310=1,0.2
Split                    splitncnn_62             1 3 961 961_splitncnn_0 961_splitncnn_1 961_splitncnn_2
Concat                   Concat_261               3 1 956_splitncnn_4 958_splitncnn_2 961_splitncnn_2 962
Convolution              Conv_262                 1 1 962 964 0=32 1=3 4=1 5=1 6=36864 9=2 -23310=1,0.2
Split                    splitncnn_63             1 2 964 964_splitncnn_0 964_splitncnn_1
Concat                   Concat_264               4 1 956_splitncnn_3 958_splitncnn_1 961_splitncnn_1 964_splitncnn_1 965
Convolution              Conv_265                 1 1 965 967 0=32 1=3 4=1 5=1 6=46080 9=2 -23310=1,0.2
Concat                   Concat_267               5 1 956_splitncnn_2 958_splitncnn_0 961_splitncnn_0 964_splitncnn_0 967 968
Convolution              Conv_268                 1 1 968 969 0=64 1=3 4=1 5=1 6=110592
Eltwise                  Add_271                  2 1 969 956_splitncnn_1 972 0=1 -23301=2,0.2,1.0
Split                    splitncnn_64             1 6 972 972_splitncnn_0 972_splitncnn_1 972_splitncnn_2 972_splitncnn_3 972_splitncnn_4 972_splitncnn_5
Convolution              Conv_272                 1 1 972_splitncnn_5 974 0=32 1=3 4=1 5=1 6=18432 9=2 -23310=1,0.2
Split                    splitncnn_65             1 4 974 974_splitncnn_0 974_splitncnn_1 974_splitncnn_2 974_splitncnn_3
Concat                   Concat_274               2 1 972_splitncnn_4 974_splitncnn_3 975
Convolution              Conv_275                 1 1 975 977 0=32 1=3 4=1 5=1 6=27648 9=2 -23310=1,0.2
Split                    splitncnn_66             1 3 977 977_splitncnn_0 977_splitncnn_1 977_splitncnn_2
Concat                   Concat_277               3 1 972_splitncnn_3 974_splitncnn_2 977_splitncnn_2 978
Convolution              Conv_278                 1 1 978 980 0=32 1=3 4=1 5=1 6=36864 9=2 -23310=1,0.2
Split                    splitncnn_67             1 2 980 980_splitncnn_0 980_splitncnn_1
Concat                   Concat_280               4 1 972_splitncnn_2 974_splitncnn_1 977_splitncnn_1 980_splitncnn_1 981
Convolution              Conv_281                 1 1 981 983 0=32 1=3 4=1 5=1 6=46080 9=2 -23310=1,0.2
Concat                   Concat_283               5 1 972_splitncnn_1 974_splitncnn_0 977_splitncnn_0 980_splitncnn_0 983 984
Convolution              Conv_284                 1 1 984 985 0=64 1=3 4=1 5=1 6=110592
Eltwise                  Add_287                  2 1 985 972_splitncnn_0 988 0=1 -23301=2,0.2,1.0
Split                    splitncnn_68             1 6 988 988_splitncnn_0 988_splitncnn_1 988_splitncnn_2 988_splitncnn_3 988_splitncnn_4 988_splitncnn_5
Convolution              Conv_288                 1 1 988_splitncnn_5 990 0=32 1=3 4=1 5=1 6=18432 9=2 -23310=1,0.2
Split                    splitncnn_69             1 4 990 990_splitncnn_0 990_splitncnn_1 990_splitncnn_2 990_splitncnn_3
Concat                   Concat_290               2 1 988_splitncnn_4 990_splitncnn_3 991
Convolution              Conv_291                 1 1 991 993 0=32 1=3 4=1 5=1 6=27648 9=2 -23310=1,0.2
Split                    splitncnn_70             1 3 993 993_splitncnn_0 993_splitncnn_1 993_splitncnn_2
Concat                   Concat_293               3 1 988_splitncnn_3 990_splitncnn_2 993_splitncnn_2 994
Convolution              Conv_294                 1 1 994 996 0=32 1=3 4=1 5=1 6=36864 9=2 -23310=1,0.2
Split                    splitncnn_71             1 2 996 996_splitncnn_0 996_splitncnn_1
Concat                   Concat_296               4 1 988_splitncnn_2 990_splitncnn_1 993_splitncnn_1 996_splitncnn_1 997
Convolution              Conv_297                 1 1 997 999 0=32 1=3 4=1 5=1 6=46080 9=2 -23310=1,0.2
Concat                   Concat_299               5 1 988_splitncnn_1 990_splitncnn_0 993_splitncnn_0 996_splitncnn_0 999 1000
Convolution              Conv_300                 1 1 1000 1001 0=64 1=3 4=1 5=1 6=110592
Eltwise                  Add_303                  2 1 1001 988_splitncnn_0 1004 0=1 -23301=2,0.2,1.0
Eltwise                  Add_306                  2 1 1004 956_splitncnn_0 1007 0=1 -23301=2,0.2,1.0
Split                    splitncnn_72             1 7 1007 1007_splitncnn_0 1007_splitncnn_1 1007_splitncnn_2 1007_splitncnn_3 1007_splitncnn_4 1007_splitncnn_5 1007_splitncnn_6
Convolution              Conv_307                 1 1 1007_splitncnn_6 1009 0=32 1=3 4=1 5=1 6=18432 9=2 -23310=1,0.2
Split                    splitncnn_73             1 4 1009 1009_splitncnn_0 1009_splitncnn_1 1009_splitncnn_2 1009_splitncnn_3
Concat                   Concat_309               2 1 1007_splitncnn_5 1009_splitncnn_3 1010
Convolution              Conv_310                 1 1 1010 1012 0=32 1=3 4=1 5=1 6=27648 9=2 -23310=1,0.2
Split                    splitncnn_74             1 3 1012 1012_splitncnn_0 1012_splitncnn_1 1012_splitncnn_2
Concat                   Concat_312               3 1 1007_splitncnn_4 1009_splitncnn_2 1012_splitncnn_2 1013
Convolution              Conv_313                 1 1 1013 1015 0=32 1=3 4=1 5=1 6=36864 9=2 -23310=1,0.2
Split                    splitncnn_75             1 2 1015 1015_splitncnn_0 1015_splitncnn_1
Concat                   Concat_315               4 1 1007_splitncnn_3 1009_splitncnn_1 1012_splitncnn_1 1015_splitncnn_1 1016
Convolution              Conv_316                 1 1 1016 1018 0=32 1=3 4=1 5=1 6=46080 9=2 -23310=1,0.2
Concat                   Concat_318               5 1 1007_splitncnn_2 1009_splitncnn_0 1012_splitncnn_0 1015_splitncnn_0 1018 1019
Convolution              Conv_319                 1 1 1019 1020 0=64 1=3 4=1 5=1 6=110592
Eltwise                  Add_322                  2 1 1020 1007_splitncnn_1 1023 0=1 -23301=2,0.2,1.0
Split                    splitncnn_76             1 6 1023 1023_splitncnn_0 1023_splitncnn_1 1023_splitncnn_2 1023_splitncnn_3 1023_splitncnn_4 1023_splitncnn_5
Convolution              Conv_323                 1 1 1023_splitncnn_5 1025 0=32 1=3 4=1 5=1 6=18432 9=2 -23310=1,0.2
Split                    splitncnn_77             1 4 1025 1025_splitncnn_0 1025_splitncnn_1 1025_splitncnn_2 1025_splitncnn_3
Concat                   Concat_325               2 1 1023_splitncnn_4 1025_splitncnn_3 1026
Convolution              Conv_326                 1 1 1026 1028 0=32 1=3 4=1 5=1 6=27648 9=2 -23310=1,0.2
Split                    splitncnn_78             1 3 1028 1028_splitncnn_0 1028_splitncnn_1 1028_splitncnn_2
Concat                   Concat_328               3 1 1023_splitncnn_3 1025_splitncnn_2 1028_splitncnn_2 1029
Convolution              Conv_329                 1 1 1029 1031 0=32 1=3 4=1 5=1 6=36864 9=2 -23310=1,0.2
Split                    splitncnn_79             1 2 1031 1031_splitncnn_0 1031_splitncnn_1
Concat                   Concat_331               4 1 1023_splitncnn_2 1025_splitncnn_1 1028_splitncnn_1 1031_splitncnn_1 1032
Convolution              Conv_332                 1 1 1032 1034 0=32 1=3 4=1 5=1 6=46080 9=2 -23310=1,0.2
Concat                   Concat_334               5 1 1023_splitncnn_1 1025_splitncnn_0 1028_splitncnn_0 1031_splitncnn_0 1034 1035
Convolution              Conv_335                 1 1 1035 1036 0=64 1=3 4=1 5=1 6=110592
Eltwise                  Add_338                  2 1 1036 1023_splitncnn_0 1039 0=1 -23301=2,0.2,1.0
Split                    splitncnn_80             1 6 1039 1039_splitncnn_0 1039_splitncnn_1 1039_splitncnn_2 1039_splitncnn_3 1039_splitncnn_4 1039_splitncnn_5
Convolution              Conv_339                 1 1 1039_splitncnn_5 1041 0=32 1=3 4=1 5=1 6=18432 9=2 -23310=1,0.2
Split                    splitncnn_81             1 4 1041 1041_splitncnn_0 1041_splitncnn_1 1041_splitncnn_2 1041_splitncnn_3
Concat                   Concat_341               2 1 1039_splitncnn_4 1041_splitncnn_3 1042
Convolution              Conv_342                 1 1 1042 1044 0=32 1=3 4=1 5=1 6=27648 9=2 -23310=1,0.2
Split                    splitncnn_82             1 3 1044 1044_splitncnn_0 1044_splitncnn_1 1044_splitncnn_2
Concat                   Concat_344               3 1 1039_splitncnn_3 1041_splitncnn_2 1044_splitncnn_2 1045
Convolution              Conv_345                 1 1 1045 1047 0=32 1=3 4=1 5=1 6=36864 9=2 -23310=1,0.2
Split                    splitncnn_83             1 2 1047 1047_splitncnn_0 1047_splitncnn_1
Concat                   Concat_347               4 1 1039_splitncnn_2 1041_splitncnn_1 1044_splitncnn_1 1047_splitncnn_1 1048
Convolution              Conv_348                 1 1 1048 1050 0=32 1=3 4=1 5=1 6=46080 9=2 -23310=1,0.2
Concat                   Concat_350               5 1 1039_splitncnn_1 1041_splitncnn_0 1044_splitncnn_0 1047_splitncnn_0 1050 1051
Convolution              Conv_351                 1 1 1051 1052 0=64 1=3 4=1 5=1 6=110592
Eltwise                  Add_354                  2 1 1052 1039_splitncnn_0 1055 0=1 -23301=2,0.2,1.0
Eltwise                  Add_357                  2 1 1055 1007_splitncnn_0 1058 0=1 -23301=2,0.2,1.0
Split                    splitncnn_84             1 7 1058 1058_splitncnn_0 1058_splitncnn_1 1058_splitncnn_2 1058_splitncnn_3 1058_splitncnn_4 1058_splitncnn_5 1058_splitncnn_6
Convolution              Conv_358                 1 1 1058_splitncnn_6 1060 0=32 1=3 4=1 5=1 6=18432 9=2 -23310=1,0.2
Split                    splitncnn_85             1 4 1060 1060_splitncnn_0 1060_splitncnn_1 1060_splitncnn_2 1060_splitncnn_3
Concat                   Concat_360               2 1 1058_splitncnn_5 1060_splitncnn_3 1061
Convolution              Conv_361                 1 1 1061 1063 0=32 1=3 4=1 5=1 6=27648 9=2 -23310=1,0.2
Split                    splitncnn_86             1 3 1063 1063_splitncnn_0 1063_splitncnn_1 1063_splitncnn_2
Concat                   Concat_363               3 1 1058_splitncnn_4 1060_splitncnn_2 1063_splitncnn_2 1064
Convolution              Conv_364                 1 1 1064 1066 0=32 1=3 4=1 5=1 6=36864 9=2 -23310=1,0.2
Split                    splitncnn_87             1 2 1066 1066_splitncnn_0 1066_splitncnn_1
Concat                   Concat_366               4 1 1058_splitncnn_3 1060_splitncnn_1 1063_splitncnn_1 1066_splitncnn_1 1067
Convolution              Conv_367                 1 1 1067 1069 0=32 1=3 4=1 5=1 6=46080 9=2 -23310=1,0.2
Concat                   Concat_369               5 1 1058_splitncnn_2 1060_splitncnn_0 1063_splitncnn_0 1066_splitncnn_0 1069 1070
Convolution              Conv_370                 1 1 1070 1071 0=64 1=3 4=1 5=1 6=110592
Eltwise                  Add_373                  2 1 1071 1058_splitncnn_1 1074 0=1 -23301=2,0.2,1.0
Split                    splitncnn_88             1 6 1074 1074_splitncnn_0 1074_splitncnn_1 1074_splitncnn_2 1074_splitncnn_3 1074_splitncnn_4 1074_splitncnn_5
Convolution              Conv_374                 1 1 1074_splitncnn_5 1076 0=32 1=3 4=1 5=1 6=18432 9=2 -23310=1,0.2
Split                    splitncnn_89             1 4 1076 1076_splitncnn_0 1076_splitncnn_1 1076_splitncnn_2 1076_splitncnn_3
Concat                   Concat_376               2 1 1074_splitncnn_4 1076_splitncnn_3 1077
Convolution              Conv_377                 1 1 1077 1079 0=32 1=3 4=1 5=1 6=27648 9=2 -23310=1,0.2
Split                    splitncnn_90             1 3 1079 1079_splitncnn_0 1079_splitncnn_1 1079_splitncnn_2
Concat                   Concat_379               3 1 1074_splitncnn_3 1076_splitncnn_2 1079_splitncnn_2 1080
Convolution              Conv_380                 1 1 1080 1082 0=32 1=3 4=1 5=1 6=36864 9=2 -23310=1,0.2
Split                    splitncnn_91             1 2 1082 1082_splitncnn_0 1082_splitncnn_1
Concat                   Concat_382               4 1 1074_splitncnn_2 1076_splitncnn_1 1079_splitncnn_1 1082_splitncnn_1 1083
Convolution              Conv_383                 1 1 1083 1085 0=32 1=3 4=1 5=1 6=46080 9=2 -23310=1,0.2
Concat                   Concat_385               5 1 1074_splitncnn_1 1076_splitncnn_0 1079_splitncnn_0 1082_splitncnn_0 1085 1086
Convolution              Conv_386                 1 1 1086 1087 0=64 1=3 4=1 5=1 6=110592
Eltwise                  Add_389                  2 1 1087 1074_splitncnn_0 1090 0=1 -23301=2,0.2,1.0
Split                    splitncnn_92             1 6 1090 1090_splitncnn_0 1090_splitncnn_1 1090_splitncnn_2 1090_splitncnn_3 1090_splitncnn_4 1090_splitncnn_5
Convolution              Conv_390                 1 1 1090_splitncnn_5 1092 0=32 1=3 4=1 5=1 6=18432 9=2 -23310=1,0.2
Split                    splitncnn_93             1 4 1092 1092_splitncnn_0 1092_splitncnn_1 1092_splitncnn_2 1092_splitncnn_3
Concat                   Concat_392               2 1 1090_splitncnn_4 1092_splitncnn_3 1093
Convolution              Conv_393                 1 1 1093 1095 0=32 1=3 4=1 5=1 6=27648 9=2 -23310=1,0.2
Split                    splitncnn_94             1 3 1095 1095_splitncnn_0 1095_splitncnn_1 1095_splitncnn_2
Concat                   Concat_395               3 1 1090_splitncnn_3 1092_splitncnn_2 1095_splitncnn_2 1096
Convolution              Conv_396                 1 1 1096 1098 0=32 1=3 4=1 5=1 6=36864 9=2 -23310=1,0.2
Split                    splitncnn_95             1 2 1098 1098_splitncnn_0 1098_splitncnn_1
Concat                   Concat_398               4 1 1090_splitncnn_2 1092_splitncnn_1 1095_splitncnn_1 1098_splitncnn_1 1099
Convolution              Conv_399                 1 1 1099 1101 0=32 1=3 4=1 5=1 6=46080 9=2 -23310=1,0.2
Concat                   Concat_401               5 1 1090_splitncnn_1 1092_splitncnn_0 1095_splitncnn_0 1098_splitncnn_0 1101 1102
Convolution              Conv_402                 1 1 1102 1103 0=64 1=3 4=1 5=1 6=110592
Eltwise                  Add_405                  2 1 1103 1090_splitncnn_0 1106 0=1 -23301=2,0.2,1.0
Eltwise                  Add_408                  2 1 1106 1058_splitncnn_0 1109 0=1 -23301=2,0.2,1.0
Split                    splitncnn_96             1 7 1109 1109_splitncnn_0 1109_splitncnn_1 1109_splitncnn_2 1109_splitncnn_3 1109_splitncnn_4 1109_splitncnn_5 1109_splitncnn_6
Convolution              Conv_409                 1 1 1109_splitncnn_6 1111 0=32 1=3 4=1 5=1 6=18432 9=2 -23310=1,0.2
Split                    splitncnn_97             1 4 1111 1111_splitncnn_0 1111_splitncnn_1 1111_splitncnn_2 1111_splitncnn_3
Concat                   Concat_411               2 1 1109_splitncnn_5 1111_splitncnn_3 1112
Convolution              Conv_412                 1 1 1112 1114 0=32 1=3 4=1 5=1 6=27648 9=2 -23310=1,0.2
Split                    splitncnn_98             1 3 1114 1114_splitncnn_0 1114_splitncnn_1 1114_splitncnn_2
Concat                   Concat_414               3 1 1109_splitncnn_4 1111_splitncnn_2 1114_splitncnn_2 1115
Convolution              Conv_415                 1 1 1115 1117 0=32 1=3 4=1 5=1 6=36864 9=2 -23310=1,0.2
Split                    splitncnn_99             1 2 1117 1117_splitncnn_0 1117_splitncnn_1
Concat                   Concat_417               4 1 1109_splitncnn_3 1111_splitncnn_1 1114_splitncnn_1 1117_splitncnn_1 1118
Convolution              Conv_418                 1 1 1118 1120 0=32 1=3 4=1 5=1 6=46080 9=2 -23310=1,0.2
Concat                   Concat_420               5 1 1109_splitncnn_2 1111_splitncnn_0 1114_splitncnn_0 1117_splitncnn_0 1120 1121
Convolution              Conv_421                 1 1 1121 1122 0=64 1=3 4=1 5=1 6=110592
Eltwise                  Add_424                  2 1 1122 1109_splitncnn_1 1125 0=1 -23301=2,0.2,1.0
Split                    splitncnn_100            1 6 1125 1125_splitncnn_0 1125_splitncnn_1 1125_splitncnn_2 1125_splitncnn_3 1125_splitncnn_4 1125_splitncnn_5
Convolution              Conv_425                 1 1 1125_splitncnn_5 1127 0=32 1=3 4=1 5=1 6=18432 9=2 -23310=1,0.2
Split                    splitncnn_101            1 4 1127 1127_splitncnn_0 1127_splitncnn_1 1127_splitncnn_2 1127_splitncnn_3
Concat                   Concat_427               2 1 1125_splitncnn_4 1127_splitncnn_3 1128
Convolution              Conv_428                 1 1 1128 1130 0=32 1=3 4=1 5=1 6=27648 9=2 -23310=1,0.2
Split                    splitncnn_102            1 3 1130 1130_splitncnn_0 1130_splitncnn_1 1130_splitncnn_2
Concat                   Concat_430               3 1 1125_splitncnn_3 1127_splitncnn_2 1130_splitncnn_2 1131
Convolution              Conv_431                 1 1 1131 1133 0=32 1=3 4=1 5=1 6=36864 9=2 -23310=1,0.2
Split                    splitncnn_103            1 2 1133 1133_splitncnn_0 1133_splitncnn_1
Concat                   Concat_433               4 1 1125_splitncnn_2 1127_splitncnn_1 1130_splitncnn_1 1133_splitncnn_1 1134
Convolution              Conv_434                 1 1 1134 1136 0=32 1=3 4=1 5=1 6=46080 9=2 -23310=1,0.2
Concat                   Concat_436               5 1 1125_splitncnn_1 1127_splitncnn_0 1130_splitncnn_0 1133_splitncnn_0 1136 1137
Convolution              Conv_437                 1 1 1137 1138 0=64 1=3 4=1 5=1 6=110592
Eltwise                  Add_440                  2 1 1138 1125_splitncnn_0 1141 0=1 -23301=2,0.2,1.0
Split                    splitncnn_104            1 6 1141 1141_splitncnn_0 1141_splitncnn_1 1141_splitncnn_2 1141_splitncnn_3 1141_splitncnn_4 1141_splitncnn_5
Convolution              Conv_441                 1 1 1141_splitncnn_5 1143 0=32 1=3 4=1 5=1 6=18432 9=2 -23310=1,0.2
Split                    splitncnn_105            1 4 1143 1143_splitncnn_0 1143_splitncnn_1 1143_splitncnn_2 1143_splitncnn_3
Concat                   Concat_443               2 1 1141_splitncnn_4 1143_splitncnn_3 1144
Convolution              Conv_444                 1 1 1144 1146 0=32 1=3 4=1 5=1 6=27648 9=2 -23310=1,0.2
Split                    splitncnn_106            1 3 1146 1146_splitncnn_0 1146_splitncnn_1 1146_splitncnn_2
Concat                   Concat_446               3 1 1141_splitncnn_3 1143_splitncnn_2 1146_splitncnn_2 1147
Convolution              Conv_447                 1 1 1147 1149 0=32 1=3 4=1 5=1 6=36864 9=2 -23310=1,0.2
Split                    splitncnn_107            1 2 1149 1149_splitncnn_0 1149_splitncnn_1
Concat                   Concat_449               4 1 1141_splitncnn_2 1143_splitncnn_1 1146_splitncnn_1 1149_splitncnn_1 1150
Convolution              Conv_450                 1 1 1150 1152 0=32 1=3 4=1 5=1 6=46080 9=2 -23310=1,0.2
Concat                   Concat_452               5 1 1141_splitncnn_1 1143_splitncnn_0 1146_splitncnn_0 1149_splitncnn_0 1152 1153
Convolution              Conv_453                 1 1 1153 1154 0=64 1=3 4=1 5=1 6=110592
Eltwise                  Add_456                  2 1 1154 1141_splitncnn_0 1157 0=1 -23301=2,0.2,1.0
Eltwise                  Add_459                  2 1 1157 1109_splitncnn_0 1160 0=1 -23301=2,0.2,1.0
Split                    splitncnn_108            1 7 1160 1160_splitncnn_0 1160_splitncnn_1 1160_splitncnn_2 1160_splitncnn_3 1160_splitncnn_4 1160_splitncnn_5 1160_splitncnn_6
Convolution              Conv_460                 1 1 1160_splitncnn_6 1162 0=32 1=3 4=1 5=1 6=18432 9=2 -23310=1,0.2
Split                    splitncnn_109            1 4 1162 1162_splitncnn_0 1162_splitncnn_1 1162_splitncnn_2 1162_splitncnn_3
Concat                   Concat_462               2 1 1160_splitncnn_5 1162_splitncnn_3 1163
Convolution              Conv_463                 1 1 1163 1165 0=32 1=3 4=1 5=1 6=27648 9=2 -23310=1,0.2
Split                    splitncnn_110            1 3 1165 1165_splitncnn_0 1165_splitncnn_1 1165_splitncnn_2
Concat                   Concat_465               3 1 1160_splitncnn_4 1162_splitncnn_2 1165_splitncnn_2 1166
Convolution              Conv_466                 1 1 1166 1168 0=32 1=3 4=1 5=1 6=36864 9=2 -23310=1,0.2
Split                    splitncnn_111            1 2 1168 1168_splitncnn_0 1168_splitncnn_1
Concat                   Concat_468               4 1 1160_splitncnn_3 1162_splitncnn_1 1165_splitncnn_1 1168_splitncnn_1 1169
Convolution              Conv_469                 1 1 1169 1171 0=32 1=3 4=1 5=1 6=46080 9=2 -23310=1,0.2
Concat                   Concat_471               5 1 1160_splitncnn_2 1162_splitncnn_0 1165_splitncnn_0 1168_splitncnn_0 1171 1172
Convolution              Conv_472                 1 1 1172 1173 0=64 1=3 4=1 5=1 6=110592
Eltwise                  Add_475                  2 1 1173 1160_splitncnn_1 1176 0=1 -23301=2,0.2,1.0
Split                    splitncnn_112            1 6 1176 1176_splitncnn_0 1176_splitncnn_1 1176_splitncnn_2 1176_splitncnn_3 1176_splitncnn_4 1176_splitncnn_5
Convolution              Conv_476                 1 1 1176_splitncnn_5 1178 0=32 1=3 4=1 5=1 6=18432 9=2 -23310=1,0.2
Split                    splitncnn_113            1 4 1178 1178_splitncnn_0 1178_splitncnn_1 1178_splitncnn_2 1178_splitncnn_3
Concat                   Concat_478               2 1 1176_splitncnn_4 1178_splitncnn_3 1179
Convolution              Conv_479                 1 1 1179 1181 0=32 1=3 4=1 5=1 6=27648 9=2 -23310=1,0.2
Split                    splitncnn_114            1 3 1181 1181_splitncnn_0 1181_splitncnn_1 1181_splitncnn_2
Concat                   Concat_481               3 1 1176_splitncnn_3 1178_splitncnn_2 1181_splitncnn_2 1182
Convolution              Conv_482                 1 1 1182 1184 0=32 1=3 4=1 5=1 6=36864 9=2 -23310=1,0.2
Split                    splitncnn_115            1 2 1184 1184_splitncnn_0 1184_splitncnn_1
Concat                   Concat_484               4 1 1176_splitncnn_2 1178_splitncnn_1 1181_splitncnn_1 1184_splitncnn_1 1185
Convolution              Conv_485                 1 1 1185 1187 0=32 1=3 4=1 5=1 6=46080 9=2 -23310=1,0.2
Concat                   Concat_487               5 1 1176_splitncnn_1 1178_splitncnn_0 1181_splitncnn_0 1184_splitncnn_0 1187 1188
Convolution              Conv_488                 1 1 1188 1189 0=64 1=3 4=1 5=1 6=110592
Eltwise                  Add_491                  2 1 1189 1176_splitncnn_0 1192 0=1 -23301=2,0.2,1.0
Split                    splitncnn_116            1 6 1192 1192_splitncnn_0 1192_splitncnn_1 1192_splitncnn_2 1192_splitncnn_3 1192_splitncnn_4 1192_splitncnn_5
Convolution              Conv_492                 1 1 1192_splitncnn_5 1194 0=32 1=3 4=1 5=1 6=18432 9=2 -23310=1,0.2
Split                    splitncnn_117            1 4 1194 1194_splitncnn_0 1194_splitncnn_1 1194_splitncnn_2 1194_splitncnn_3
Concat                   Concat_494               2 1 1192_splitncnn_4 1194_splitncnn_3 1195
Convolution              Conv_495                 1 1 1195 1197 0=32 1=3 4=1 5=1 6=27648 9=2 -23310=1,0.2
Split                    splitncnn_118            1 3 1197 1197_splitncnn_0 1197_splitncnn_1 1197_splitncnn_2
Concat                   Concat_497               3 1 1192_splitncnn_3 1194_splitncnn_2 1197_splitncnn_2 1198
Convolution              Conv_498                 1 1 1198 1200 0=32 1=3 4=1 5=1 6=36864 9=2 -23310=1,0.2
Split                    splitncnn_119            1 2 1200 1200_splitncnn_0 1200_splitncnn_1
Concat                   Concat_500               4 1 1192_splitncnn_2 1194_splitncnn_1 1197_splitncnn_1 1200_splitncnn_1 1201
Convolution              Conv_501                 1 1 1201 1203 0=32 1=3 4=1 5=1 6=46080 9=2 -23310=1,0.2
Concat                   Concat_503               5 1 1192_splitncnn_1 1194_splitncnn_0 1197_splitncnn_0 1200_splitncnn_0 1203 1204
Convolution              Conv_504                 1 1 1204 1205 0=64 1=3 4=1 5=1 6=110592
Eltwise                  Add_507                  2 1 1205 1192_splitncnn_0 1208 0=1 -23301=2,0.2,1.0
Eltwise                  Add_510                  2 1 1208 1160_splitncnn_0 1211 0=1 -23301=2,0.2,1.0
Split                    splitncnn_120            1 7 1211 1211_splitncnn_0 1211_splitncnn_1 1211_splitncnn_2 1211_splitncnn_3 1211_splitncnn_4 1211_splitncnn_5 1211_splitncnn_6
Convolution              Conv_511                 1 1 1211_splitncnn_6 1213 0=32 1=3 4=1 5=1 6=18432 9=2 -23310=1,0.2
Split                    splitncnn_121            1 4 1213 1213_splitncnn_0 1213_splitncnn_1 1213_splitncnn_2 1213_splitncnn_3
Concat                   Concat_513               2 1 1211_splitncnn_5 1213_splitncnn_3 1214
Convolution              Conv_514                 1 1 1214 1216 0=32 1=3 4=1 5=1 6=27648 9=2 -23310=1,0.2
Split                    splitncnn_122            1 3 1216 1216_splitncnn_0 1216_splitncnn_1 1216_splitncnn_2
Concat                   Concat_516               3 1 1211_splitncnn_4 1213_splitncnn_2 1216_splitncnn_2 1217
Convolution              Conv_517                 1 1 1217 1219 0=32 1=3 4=1 5=1 6=36864 9=2 -23310=1,0.2
Split                    splitncnn_123            1 2 1219 1219_splitncnn_0 1219_splitncnn_1
Concat                   Concat_519               4 1 1211_splitncnn_3 1213_splitncnn_1 1216_splitncnn_1 1219_splitncnn_1 1220
Convolution              Conv_520                 1 1 1220 1222 0=32 1=3 4=1 5=1 6=46080 9=2 -23310=1,0.2
Concat                   Concat_522               5 1 1211_splitncnn_2 1213_splitncnn_0 1216_splitncnn_0 1219_splitncnn_0 1222 1223
Convolution              Conv_523                 1 1 1223 1224 0=64 1=3 4=1 5=1 6=110592
Eltwise                  Add_526                  2 1 1224 1211_splitncnn_1 1227 0=1 -23301=2,0.2,1.0
Split                    splitncnn_124            1 6 1227 1227_splitncnn_0 1227_splitncnn_1 1227_splitncnn_2 1227_splitncnn_3 1227_splitncnn_4 1227_splitncnn_5
Convolution              Conv_527                 1 1 1227_splitncnn_5 1229 0=32 1=3 4=1 5=1 6=18432 9=2 -23310=1,0.2
Split                    splitncnn_125            1 4 1229 1229_splitncnn_0 1229_splitncnn_1 1229_splitncnn_2 1229_splitncnn_3
Concat                   Concat_529               2 1 1227_splitncnn_4 1229_splitncnn_3 1230
Convolution              Conv_530                 1 1 1230 1232 0=32 1=3 4=1 5=1 6=27648 9=2 -23310=1,0.2
Split                    splitncnn_126            1 3 1232 1232_splitncnn_0 1232_splitncnn_1 1232_splitncnn_2
Concat                   Concat_532               3 1 1227_splitncnn_3 1229_splitncnn_2 1232_splitncnn_2 1233
Convolution              Conv_533                 1 1 1233 1235 0=32 1=3 4=1 5=1 6=36864 9=2 -23310=1,0.2
Split                    splitncnn_127            1 2 1235 1235_splitncnn_0 1235_splitncnn_1
Concat                   Concat_535               4 1 1227_splitncnn_2 1229_splitncnn_1 1232_splitncnn_1 1235_splitncnn_1 1236
Convolution              Conv_536                 1 1 1236 1238 0=32 1=3 4=1 5=1 6=46080 9=2 -23310=1,0.2
Concat                   Concat_538               5 1 1227_splitncnn_1 1229_splitncnn_0 1232_splitncnn_0 1235_splitncnn_0 1238 1239
Convolution              Conv_539                 1 1 1239 1240 0=64 1=3 4=1 5=1 6=110592
Eltwise                  Add_542                  2 1 1240 1227_splitncnn_0 1243 0=1 -23301=2,0.2,1.0
Split                    splitncnn_128            1 6 1243 1243_splitncnn_0 1243_splitncnn_1 1243_splitncnn_2 1243_splitncnn_3 1243_splitncnn_4 1243_splitncnn_5
Convolution              Conv_543                 1 1 1243_splitncnn_5 1245 0=32 1=3 4=1 5=1 6=18432 9=2 -23310=1,0.2
Split                    splitncnn_129            1 4 1245 1245_splitncnn_0 1245_splitncnn_1 1245_splitncnn_2 1245_splitncnn_3
Concat                   Concat_545               2 1 1243_splitncnn_4 1245_splitncnn_3 1246
Convolution              Conv_546                 1 1 1246 1248 0=32 1=3 4=1 5=1 6=27648 9=2 -23310=1,0.2
Split                    splitncnn_130            1 3 1248 1248_splitncnn_0 1248_splitncnn_1 1248_splitncnn_2
Concat                   Concat_548               3 1 1243_splitncnn_3 1245_splitncnn_2 1248_splitncnn_2 1249
Convolution              Conv_549                 1 1 1249 1251 0=32 1=3 4=1 5=1 6=36864 9=2 -23310=1,0.2
Split                    splitncnn_131            1 2 1251 1251_splitncnn_0 1251_splitncnn_1
Concat                   Concat_551               4 1 1243_splitncnn_2 1245_splitncnn_1 1248_splitncnn_1 1251_splitncnn_1 1252
Convolution              Conv_552                 1 1 1252 1254 0=32 1=3 4=1 5=1 6=46080 9=2 -23310=1,0.2
Concat                   Concat_554               5 1 1243_splitncnn_1 1245_splitncnn_0 1248_splitncnn_0 1251_splitncnn_0 1254 1255
Convolution              Conv_555                 1 1 1255 1256 0=64 1=3 4=1 5=1 6=110592
Eltwise                  Add_558                  2 1 1256 1243_splitncnn_0 1259 0=1 -23301=2,0.2,1.0
Eltwise                  Add_561                  2 1 1259 1211_splitncnn_0 1262 0=1 -23301=2,0.2,1.0
Split                    splitncnn_132            1 7 1262 1262_splitncnn_0 1262_splitncnn_1 1262_splitncnn_2 1262_splitncnn_3 1262_splitncnn_4 1262_splitncnn_5 1262_splitncnn_6
Convolution              Conv_562                 1 1 1262_splitncnn_6 1264 0=32 1=3 4=1 5=1 6=18432 9=2 -23310=1,0.2
Split                    splitncnn_133            1 4 1264 1264_splitncnn_0 1264_splitncnn_1 1264_splitncnn_2 1264_splitncnn_3
Concat                   Concat_564               2 1 1262_splitncnn_5 1264_splitncnn_3 1265
Convolution              Conv_565                 1 1 1265 1267 0=32 1=3 4=1 5=1 6=27648 9=2 -23310=1,0.2
Split                    splitncnn_134            1 3 1267 1267_splitncnn_0 1267_splitncnn_1 1267_splitncnn_2
Concat                   Concat_567               3 1 1262_splitncnn_4 1264_splitncnn_2 1267_splitncnn_2 1268
Convolution              Conv_568                 1 1 1268 1270 0=32 1=3 4=1 5=1 6=36864 9=2 -23310=1,0.2
Split                    splitncnn_135            1 2 1270 1270_splitncnn_0 1270_splitncnn_1
Concat                   Concat_570               4 1 1262_splitncnn_3 1264_splitncnn_1 1267_splitncnn_1 1270_splitncnn_1 1271
Convolution              Conv_571                 1 1 1271 1273 0=32 1=3 4=1 5=1 6=46080 9=2 -23310=1,0.2
Concat                   Concat_573               5 1 1262_splitncnn_2 1264_splitncnn_0 1267_splitncnn_0 1270_splitncnn_0 1273 1274
Convolution              Conv_574                 1 1 1274 1275 0=64 1=3 4=1 5=1 6=110592
Eltwise                  Add_577                  2 1 1275 1262_splitncnn_1 1278 0=1 -23301=2,0.2,1.0
Split                    splitncnn_136            1 6 1278 1278_splitncnn_0 1278_splitncnn_1 1278_splitncnn_2 1278_splitncnn_3 1278_splitncnn_4 1278_splitncnn_5
Convolution              Conv_578                 1 1 1278_splitncnn_5 1280 0=32 1=3 4=1 5=1 6=18432 9=2 -23310=1,0.2
Split                    splitncnn_137            1 4 1280 1280_splitncnn_0 1280_splitncnn_1 1280_splitncnn_2 1280_splitncnn_3
Concat                   Concat_580               2 1 1278_splitncnn_4 1280_splitncnn_3 1281
Convolution              Conv_581                 1 1 1281 1283 0=32 1=3 4=1 5=1 6=27648 9=2 -23310=1,0.2
Split                    splitncnn_138            1 3 1283 1283_splitncnn_0 1283_splitncnn_1 1283_splitncnn_2
Concat                   Concat_583               3 1 1278_splitncnn_3 1280_splitncnn_2 1283_splitncnn_2 1284
Convolution              Conv_584                 1 1 1284 1286 0=32 1=3 4=1 5=1 6=36864 9=2 -23310=1,0.2
Split                    splitncnn_139            1 2 1286 1286_splitncnn_0 1286_splitncnn_1
Concat                   Concat_586               4 1 1278_splitncnn_2 1280_splitncnn_1 1283_splitncnn_1 1286_splitncnn_1 1287
Convolution              Conv_587                 1 1 1287 1289 0=32 1=3 4=1 5=1 6=46080 9=2 -23310=1,0.2
Concat                   Concat_589               5 1 1278_splitncnn_1 1280_splitncnn_0 1283_splitncnn_0 1286_splitncnn_0 1289 1290
Convolution              Conv_590                 1 1 1290 1291 0=64 1=3 4=1 5=1 6=110592
Eltwise                  Add_593                  2 1 1291 1278_splitncnn_0 1294 0=1 -23301=2,0.2,1.0
Split                    splitncnn_140            1 6 1294 1294_splitncnn_0 1294_splitncnn_1 1294_splitncnn_2 1294_splitncnn_3 1294_splitncnn_4 1294_splitncnn_5
Convolution              Conv_594                 1 1 1294_splitncnn_5 1296 0=32 1=3 4=1 5=1 6=18432 9=2 -23310=1,0.2
Split                    splitncnn_141            1 4 1296 1296_splitncnn_0 1296_splitncnn_1 1296_splitncnn_2 1296_splitncnn_3
Concat                   Concat_596               2 1 1294_splitncnn_4 1296_splitncnn_3 1297
Convolution              Conv_597                 1 1 1297 1299 0=32 1=3 4=1 5=1 6=27648 9=2 -23310=1,0.2
Split                    splitncnn_142            1 3 1299 1299_splitncnn_0 1299_splitncnn_1 1299_splitncnn_2
Concat                   Concat_599               3 1 1294_splitncnn_3 1296_splitncnn_2 1299_splitncnn_2 1300
Convolution              Conv_600                 1 1 1300 1302 0=32 1=3 4=1 5=1 6=36864 9=2 -23310=1,0.2
Split                    splitncnn_143            1 2 1302 1302_splitncnn_0 1302_splitncnn_1
Concat                   Concat_602               4 1 1294_splitncnn_2 1296_splitncnn_1 1299_splitncnn_1 1302_splitncnn_1 1303
Convolution              Conv_603                 1 1 1303 1305 0=32 1=3 4=1 5=1 6=46080 9=2 -23310=1,0.2
Concat                   Concat_605               5 1 1294_splitncnn_1 1296_splitncnn_0 1299_splitncnn_0 1302_splitncnn_0 1305 1306
Convolution              Conv_606                 1 1 1306 1307 0=64 1=3 4=1 5=1 6=110592
Eltwise                  Add_609                  2 1 1307 1294_splitncnn_0 1310 0=1 -23301=2,0.2,1.0
Eltwise                  Add_612                  2 1 1310 1262_splitncnn_0 1313 0=1 -23301=2,0.2,1.0
Split                    splitncnn_144            1 7 1313 1313_splitncnn_0 1313_splitncnn_1 1313_splitncnn_2 1313_splitncnn_3 1313_splitncnn_4 1313_splitncnn_5 1313_splitncnn_6
Convolution              Conv_613                 1 1 1313_splitncnn_6 1315 0=32 1=3 4=1 5=1 6=18432 9=2 -23310=1,0.2
Split                    splitncnn_145            1 4 1315 1315_splitncnn_0 1315_splitncnn_1 1315_splitncnn_2 1315_splitncnn_3
Concat                   Concat_615               2 1 1313_splitncnn_5 1315_splitncnn_3 1316
Convolution              Conv_616                 1 1 1316 1318 0=32 1=3 4=1 5=1 6=27648 9=2 -23310=1,0.2
Split                    splitncnn_146            1 3 1318 1318_splitncnn_0 1318_splitncnn_1 1318_splitncnn_2
Concat                   Concat_618               3 1 1313_splitncnn_4 1315_splitncnn_2 1318_splitncnn_2 1319
Convolution              Conv_619                 1 1 1319 1321 0=32 1=3 4=1 5=1 6=36864 9=2 -23310=1,0.2
Split                    splitncnn_147            1 2 1321 1321_splitncnn_0 1321_splitncnn_1
Concat                   Concat_621               4 1 1313_splitncnn_3 1315_splitncnn_1 1318_splitncnn_1 1321_splitncnn_1 1322
Convolution              Conv_622                 1 1 1322 1324 0=32 1=3 4=1 5=1 6=46080 9=2 -23310=1,0.2
Concat                   Concat_624               5 1 1313_splitncnn_2 1315_splitncnn_0 1318_splitncnn_0 1321_splitncnn_0 1324 1325
Convolution              Conv_625                 1 1 1325 1326 0=64 1=3 4=1 5=1 6=110592
Eltwise                  Add_628                  2 1 1326 1313_splitncnn_1 1329 0=1 -23301=2,0.2,1.0
Split                    splitncnn_148            1 6 1329 1329_splitncnn_0 1329_splitncnn_1 1329_splitncnn_2 1329_splitncnn_3 1329_splitncnn_4 1329_splitncnn_5
Convolution              Conv_629                 1 1 1329_splitncnn_5 1331 0=32 1=3 4=1 5=1 6=18432 9=2 -23310=1,0.2
Split                    splitncnn_149            1 4 1331 1331_splitncnn_0 1331_splitncnn_1 1331_splitncnn_2 1331_splitncnn_3
Concat                   Concat_631               2 1 1329_splitncnn_4 1331_splitncnn_3 1332
Convolution              Conv_632                 1 1 1332 1334 0=32 1=3 4=1 5=1 6=27648 9=2 -23310=1,0.2
Split                    splitncnn_150            1 3 1334 1334_splitncnn_0 1334_splitncnn_1 1334_splitncnn_2
Concat                   Concat_634               3 1 1329_splitncnn_3 1331_splitncnn_2 1334_splitncnn_2 1335
Convolution              Conv_635                 1 1 1335 1337 0=32 1=3 4=1 5=1 6=36864 9=2 -23310=1,0.2
Split                    splitncnn_151            1 2 1337 1337_splitncnn_0 1337_splitncnn_1
Concat                   Concat_637               4 1 1329_splitncnn_2 1331_splitncnn_1 1334_splitncnn_1 1337_splitncnn_1 1338
Convolution              Conv_638                 1 1 1338 1340 0=32 1=3 4=1 5=1 6=46080 9=2 -23310=1,0.2
Concat                   Concat_640               5 1 1329_splitncnn_1 1331_splitncnn_0 1334_splitncnn_0 1337_splitncnn_0 1340 1341
Convolution              Conv_641                 1 1 1341 1342 0=64 1=3 4=1 5=1 6=110592
Eltwise                  Add_644                  2 1 1342 1329_splitncnn_0 1345 0=1 -23301=2,0.2,1.0
Split                    splitncnn_152            1 6 1345 1345_splitncnn_0 1345_splitncnn_1 1345_splitncnn_2 1345_splitncnn_3 1345_splitncnn_4 1345_splitncnn_5
Convolution              Conv_645                 1 1 1345_splitncnn_5 1347 0=32 1=3 4=1 5=1 6=18432 9=2 -23310=1,0.2
Split                    splitncnn_153            1 4 1347 1347_splitncnn_0 1347_splitncnn_1 1347_splitncnn_2 1347_splitncnn_3
Concat                   Concat_647               2 1 1345_splitncnn_4 1347_splitncnn_3 1348
Convolution              Conv_648                 1 1 1348 1350 0=32 1=3 4=1 5=1 6=27648 9=2 -23310=1,0.2
Split                    splitncnn_154            1 3 1350 1350_splitncnn_0 1350_splitncnn_1 1350_splitncnn_2
Concat                   Concat_650               3 1 1345_splitncnn_3 1347_splitncnn_2 1350_splitncnn_2 1351
Convolution              Conv_651                 1 1 1351 1353 0=32 1=3 4=1 5=1 6=36864 9=2 -23310=1,0.2
Split                    splitncnn_155            1 2 1353 1353_splitncnn_0 1353_splitncnn_1
Concat                   Concat_653               4 1 1345_splitncnn_2 1347_splitncnn_1 1350_splitncnn_1 1353_splitncnn_1 1354
Convolution              Conv_654                 1 1 1354 1356 0=32 1=3 4=1 5=1 6=46080 9=2 -23310=1,0.2
Concat                   Concat_656               5 1 1345_splitncnn_1 1347_splitncnn_0 1350_splitncnn_0 1353_splitncnn_0 1356 1357
Convolution              Conv_657                 1 1 1357 1358 0=64 1=3 4=1 5=1 6=110592
Eltwise                  Add_660                  2 1 1358 1345_splitncnn_0 1361 0=1 -23301=2,0.2,1.0
Eltwise                  Add_663                  2 1 1361 1313_splitncnn_0 1364 0=1 -23301=2,0.2,1.0
Split                    splitncnn_156            1 7 1364 1364_splitncnn_0 1364_splitncnn_1 1364_splitncnn_2 1364_splitncnn_3 1364_splitncnn_4 1364_splitncnn_5 1364_splitncnn_6
Convolution              Conv_664                 1 1 1364_splitncnn_6 1366 0=32 1=3 4=1 5=1 6=18432 9=2 -23310=1,0.2
Split                    splitncnn_157            1 4 1366 1366_splitncnn_0 1366_splitncnn_1 1366_splitncnn_2 1366_splitncnn_3
Concat                   Concat_666               2 1 1364_splitncnn_5 1366_splitncnn_3 1367
Convolution              Conv_667                 1 1 1367 1369 0=32 1=3 4=1 5=1 6=27648 9=2 -23310=1,0.2
Split                    splitncnn_158            1 3 1369 1369_splitncnn_0 1369_splitncnn_1 1369_splitncnn_2
Concat                   Concat_669               3 1 1364_splitncnn_4 1366_splitncnn_2 1369_splitncnn_2 1370
Convolution              Conv_670                 1 1 1370 1372 0=32 1=3 4=1 5=1 6=36864 9=2 -23310=1,0.2
Split                    splitncnn_159            1 2 1372 1372_splitncnn_0 1372_splitncnn_1
Concat                   Concat_672               4 1 1364_splitncnn_3 1366_splitncnn_1 1369_splitncnn_1 1372_splitncnn_1 1373
Convolution              Conv_673                 1 1 1373 1375 0=32 1=3 4=1 5=1 6=46080 9=2 -23310=1,0.2
Concat                   Concat_675               5 1 1364_splitncnn_2 1366_splitncnn_0 1369_splitncnn_0 1372_splitncnn_0 1375 1376
Convolution              Conv_676                 1 1 1376 1377 0=64 1=3 4=1 5=1 6=110592
Eltwise                  Add_679                  2 1 1377 1364_splitncnn_1 1380 0=1 -23301=2,0.2,1.0
Split                    splitncnn_160            1 6 1380 1380_splitncnn_0 1380_splitncnn_1 1380_splitncnn_2 1380_splitncnn_3 1380_splitncnn_4 1380_splitncnn_5
Convolution              Conv_680                 1 1 1380_splitncnn_5 1382 0=32 1=3 4=1 5=1 6=18432 9=2 -23310=1,0.2
Split                    splitncnn_161            1 4 1382 1382_splitncnn_0 1382_splitncnn_1 1382_splitncnn_2 1382_splitncnn_3
Concat                   Concat_682               2 1 1380_splitncnn_4 1382_splitncnn_3 1383
Convolution              Conv_683                 1 1 1383 1385 0=32 1=3 4=1 5=1 6=27648 9=2 -23310=1,0.2
Split                    splitncnn_162            1 3 1385 1385_splitncnn_0 1385_splitncnn_1 1385_splitncnn_2
Concat                   Concat_685               3 1 1380_splitncnn_3 1382_splitncnn_2 1385_splitncnn_2 1386
Convolution              Conv_686                 1 1 1386 1388 0=32 1=3 4=1 5=1 6=36864 9=2 -23310=1,0.2
Split                    splitncnn_163            1 2 1388 1388_splitncnn_0 1388_splitncnn_1
Concat                   Concat_688               4 1 1380_splitncnn_2 1382_splitncnn_1 1385_splitncnn_1 1388_splitncnn_1 1389
Convolution              Conv_689                 1 1 1389 1391 0=32 1=3 4=1 5=1 6=46080 9=2 -23310=1,0.2
Concat                   Concat_691               5 1 1380_splitncnn_1 1382_splitncnn_0 1385_splitncnn_0 1388_splitncnn_0 1391 1392
Convolution              Conv_692                 1 1 1392 1393 0=64 1=3 4=1 5=1 6=110592
Eltwise                  Add_695                  2 1 1393 1380_splitncnn_0 1396 0=1 -23301=2,0.2,1.0
Split                    splitncnn_164            1 6 1396 1396_splitncnn_0 1396_splitncnn_1 1396_splitncnn_2 1396_splitncnn_3 1396_splitncnn_4 1396_splitncnn_5
Convolution              Conv_696                 1 1 1396_splitncnn_5 1398 0=32 1=3 4=1 5=1 6=18432 9=2 -23310=1,0.2
Split                    splitncnn_165            1 4 1398 1398_splitncnn_0 1398_splitncnn_1 1398_splitncnn_2 1398_splitncnn_3
Concat                   Concat_698               2 1 1396_splitncnn_4 1398_splitncnn_3 1399
Convolution              Conv_699                 1 1 1399 1401 0=32 1=3 4=1 5=1 6=27648 9=2 -23310=1,0.2
Split                    splitncnn_166            1 3 1401 1401_splitncnn_0 1401_splitncnn_1 1401_splitncnn_2
Concat                   Concat_701               3 1 1396_splitncnn_3 1398_splitncnn_2 1401_splitncnn_2 1402
Convolution              Conv_702                 1 1 1402 1404 0=32 1=3 4=1 5=1 6=36864 9=2 -23310=1,0.2
Split                    splitncnn_167            1 2 1404 1404_splitncnn_0 1404_splitncnn_1
Concat                   Concat_704               4 1 1396_splitncnn_2 1398_splitncnn_1 1401_splitncnn_1 1404_splitncnn_1 1405
Convolution              Conv_705                 1 1 1405 1407 0=32 1=3 4=1 5=1 6=46080 9=2 -23310=1,0.2
Concat                   Concat_707               5 1 1396_splitncnn_1 1398_splitncnn_0 1401_splitncnn_0 1404_splitncnn_0 1407 1408
Convolution              Conv_708                 1 1 1408 1409 0=64 1=3 4=1 5=1 6=110592
Eltwise                  Add_711                  2 1 1409 1396_splitncnn_0 1412 0=1 -23301=2,0.2,1.0
Eltwise                  Add_714                  2 1 1412 1364_splitncnn_0 1415 0=1 -23301=2,0.2,1.0
Split                    splitncnn_168            1 7 1415 1415_splitncnn_0 1415_splitncnn_1 1415_splitncnn_2 1415_splitncnn_3 1415_splitncnn_4 1415_splitncnn_5 1415_splitncnn_6
Convolution              Conv_715                 1 1 1415_splitncnn_6 1417 0=32 1=3 4=1 5=1 6=18432 9=2 -23310=1,0.2
Split                    splitncnn_169            1 4 1417 1417_splitncnn_0 1417_splitncnn_1 1417_splitncnn_2 1417_splitncnn_3
Concat                   Concat_717               2 1 1415_splitncnn_5 1417_splitncnn_3 1418
Convolution              Conv_718                 1 1 1418 1420 0=32 1=3 4=1 5=1 6=27648 9=2 -23310=1,0.2
Split                    splitncnn_170            1 3 1420 1420_splitncnn_0 1420_splitncnn_1 1420_splitncnn_2
Concat                   Concat_720               3 1 1415_splitncnn_4 1417_splitncnn_2 1420_splitncnn_2 1421
Convolution              Conv_721                 1 1 1421 1423 0=32 1=3 4=1 5=1 6=36864 9=2 -23310=1,0.2
Split                    splitncnn_171            1 2 1423 1423_splitncnn_0 1423_splitncnn_1
Concat                   Concat_723               4 1 1415_splitncnn_3 1417_splitncnn_1 1420_splitncnn_1 1423_splitncnn_1 1424
Convolution              Conv_724                 1 1 1424 1426 0=32 1=3 4=1 5=1 6=46080 9=2 -23310=1,0.2
Concat                   Concat_726               5 1 1415_splitncnn_2 1417_splitncnn_0 1420_splitncnn_0 1423_splitncnn_0 1426 1427
Convolution              Conv_727                 1 1 1427 1428 0=64 1=3 4=1 5=1 6=110592
Eltwise                  Add_730                  2 1 1428 1415_splitncnn_1 1431 0=1 -23301=2,0.2,1.0
Split                    splitncnn_172            1 6 1431 1431_splitncnn_0 1431_splitncnn_1 1431_splitncnn_2 1431_splitncnn_3 1431_splitncnn_4 1431_splitncnn_5
Convolution              Conv_731                 1 1 1431_splitncnn_5 1433 0=32 1=3 4=1 5=1 6=18432 9=2 -23310=1,0.2
Split                    splitncnn_173            1 4 1433 1433_splitncnn_0 1433_splitncnn_1 1433_splitncnn_2 1433_splitncnn_3
Concat                   Concat_733               2 1 1431_splitncnn_4 1433_splitncnn_3 1434
Convolution              Conv_734                 1 1 1434 1436 0=32 1=3 4=1 5=1 6=27648 9=2 -23310=1,0.2
Split                    splitncnn_174            1 3 1436 1436_splitncnn_0 1436_splitncnn_1 1436_splitncnn_2
Concat                   Concat_736               3 1 1431_splitncnn_3 1433_splitncnn_2 1436_splitncnn_2 1437
Convolution              Conv_737                 1 1 1437 1439 0=32 1=3 4=1 5=1 6=36864 9=2 -23310=1,0.2
Split                    splitncnn_175            1 2 1439 1439_splitncnn_0 1439_splitncnn_1
Concat                   Concat_739               4 1 1431_splitncnn_2 1433_splitncnn_1 1436_splitncnn_1 1439_splitncnn_1 1440
Convolution              Conv_740                 1 1 1440 1442 0=32 1=3 4=1 5=1 6=46080 9=2 -23310=1,0.2
Concat                   Concat_742               5 1 1431_splitncnn_1 1433_splitncnn_0 1436_splitncnn_0 1439_splitncnn_0 1442 1443
Convolution              Conv_743                 1 1 1443 1444 0=64 1=3 4=1 5=1 6=110592
Eltwise                  Add_746                  2 1 1444 1431_splitncnn_0 1447 0=1 -23301=2,0.2,1.0
Split                    splitncnn_176            1 6 1447 1447_splitncnn_0 1447_splitncnn_1 1447_splitncnn_2 1447_splitncnn_3 1447_splitncnn_4 1447_splitncnn_5
Convolution              Conv_747                 1 1 1447_splitncnn_5 1449 0=32 1=3 4=1 5=1 6=18432 9=2 -23310=1,0.2
Split                    splitncnn_177            1 4 1449 1449_splitncnn_0 1449_splitncnn_1 1449_splitncnn_2 1449_splitncnn_3
Concat                   Concat_749               2 1 1447_splitncnn_4 1449_splitncnn_3 1450
Convolution              Conv_750                 1 1 1450 1452 0=32 1=3 4=1 5=1 6=27648 9=2 -23310=1,0.2
Split                    splitncnn_178            1 3 1452 1452_splitncnn_0 1452_splitncnn_1 1452_splitncnn_2
Concat                   Concat_752               3 1 1447_splitncnn_3 1449_splitncnn_2 1452_splitncnn_2 1453
Convolution              Conv_753                 1 1 1453 1455 0=32 1=3 4=1 5=1 6=36864 9=2 -23310=1,0.2
Split                    splitncnn_179            1 2 1455 1455_splitncnn_0 1455_splitncnn_1
Concat                   Concat_755               4 1 1447_splitncnn_2 1449_splitncnn_1 1452_splitncnn_1 1455_splitncnn_1 1456
Convolution              Conv_756                 1 1 1456 1458 0=32 1=3 4=1 5=1 6=46080 9=2 -23310=1,0.2
Concat                   Concat_758               5 1 1447_splitncnn_1 1449_splitncnn_0 1452_splitncnn_0 1455_splitncnn_0 1458 1459
Convolution              Conv_759                 1 1 1459 1460 0=64 1=3 4=1 5=1 6=110592
Eltwise                  Add_762                  2 1 1460 1447_splitncnn_0 1463 0=1 -23301=2,0.2,1.0
Eltwise                  Add_765                  2 1 1463 1415_splitncnn_0 1466 0=1 -23301=2,0.2,1.0
Split                    splitncnn_180            1 7 1466 1466_splitncnn_0 1466_splitncnn_1 1466_splitncnn_2 1466_splitncnn_3 1466_splitncnn_4 1466_splitncnn_5 1466_splitncnn_6
Convolution              Conv_766                 1 1 1466_splitncnn_6 1468 0=32 1=3 4=1 5=1 6=18432 9=2 -23310=1,0.2
Split                    splitncnn_181            1 4 1468 1468_splitncnn_0 1468_splitncnn_1 1468_splitncnn_2 1468_splitncnn_3
Concat                   Concat_768               2 1 1466_splitncnn_5 1468_splitncnn_3 1469
Convolution              Conv_769                 1 1 1469 1471 0=32 1=3 4=1 5=1 6=27648 9=2 -23310=1,0.2
Split                    splitncnn_182            1 3 1471 1471_splitncnn_0 1471_splitncnn_1 1471_splitncnn_2
Concat                   Concat_771               3 1 1466_splitncnn_4 1468_splitncnn_2 1471_splitncnn_2 1472
Convolution              Conv_772                 1 1 1472 1474 0=32 1=3 4=1 5=1 6=36864 9=2 -23310=1,0.2
Split                    splitncnn_183            1 2 1474 1474_splitncnn_0 1474_splitncnn_1
Concat                   Concat_774               4 1 1466_splitncnn_3 1468_splitncnn_1 1471_splitncnn_1 1474_splitncnn_1 1475
Convolution              Conv_775                 1 1 1475 1477 0=32 1=3 4=1 5=1 6=46080 9=2 -23310=1,0.2
Concat                   Concat_777               5 1 1466_splitncnn_2 1468_splitncnn_0 1471_splitncnn_0 1474_splitncnn_0 1477 1478
Convolution              Conv_778                 1 1 1478 1479 0=64 1=3 4=1 5=1 6=110592
Eltwise                  Add_781                  2 1 1479 1466_splitncnn_1 1482 0=1 -23301=2,0.2,1.0
Split                    splitncnn_184            1 6 1482 1482_splitncnn_0 1482_splitncnn_1 1482_splitncnn_2 1482_splitncnn_3 1482_splitncnn_4 1482_splitncnn_5
Convolution              Conv_782                 1 1 1482_splitncnn_5 1484 0=32 1=3 4=1 5=1 6=18432 9=2 -23310=1,0.2
Split                    splitncnn_185            1 4 1484 1484_splitncnn_0 1484_splitncnn_1 1484_splitncnn_2 1484_splitncnn_3
Concat                   Concat_784               2 1 1482_splitncnn_4 1484_splitncnn_3 1485
Convolution              Conv_785                 1 1 1485 1487 0=32 1=3 4=1 5=1 6=27648 9=2 -23310=1,0.2
Split                    splitncnn_186            1 3 1487 1487_splitncnn_0 1487_splitncnn_1 1487_splitncnn_2
Concat                   Concat_787               3 1 1482_splitncnn_3 1484_splitncnn_2 1487_splitncnn_2 1488
Convolution              Conv_788                 1 1 1488 1490 0=32 1=3 4=1 5=1 6=36864 9=2 -23310=1,0.2
Split                    splitncnn_187            1 2 1490 1490_splitncnn_0 1490_splitncnn_1
Concat                   Concat_790               4 1 1482_splitncnn_2 1484_splitncnn_1 1487_splitncnn_1 1490_splitncnn_1 1491
Convolution              Conv_791                 1 1 1491 1493 0=32 1=3 4=1 5=1 6=46080 9=2 -23310=1,0.2
Concat                   Concat_793               5 1 1482_splitncnn_1 1484_splitncnn_0 1487_splitncnn_0 1490_splitncnn_0 1493 1494
Convolution              Conv_794                 1 1 1494 1495 0=64 1=3 4=1 5=1 6=110592
Eltwise                  Add_797                  2 1 1495 1482_splitncnn_0 1498 0=1 -23301=2,0.2,1.0
Split                    splitncnn_188            1 6 1498 1498_splitncnn_0 1498_splitncnn_1 1498_splitncnn_2 1498_splitncnn_3 1498_splitncnn_4 1498_splitncnn_5
Convolution              Conv_798                 1 1 1498_splitncnn_5 1500 0=32 1=3 4=1 5=1 6=18432 9=2 -23310=1,0.2
Split                    splitncnn_189            1 4 1500 1500_splitncnn_0 1500_splitncnn_1 1500_splitncnn_2 1500_splitncnn_3
Concat                   Concat_800               2 1 1498_splitncnn_4 1500_splitncnn_3 1501
Convolution              Conv_801                 1 1 1501 1503 0=32 1=3 4=1 5=1 6=27648 9=2 -23310=1,0.2
Split                    splitncnn_190            1 3 1503 1503_splitncnn_0 1503_splitncnn_1 1503_splitncnn_2
Concat                   Concat_803               3 1 1498_splitncnn_3 1500_splitncnn_2 1503_splitncnn_2 1504
Convolution              Conv_804                 1 1 1504 1506 0=32 1=3 4=1 5=1 6=36864 9=2 -23310=1,0.2
Split                    splitncnn_191            1 2 1506 1506_splitncnn_0 1506_splitncnn_1
Concat                   Concat_806               4 1 1498_splitncnn_2 1500_splitncnn_1 1503_splitncnn_1 1506_splitncnn_1 1507
Convolution              Conv_807                 1 1 1507 1509 0=32 1=3 4=1 5=1 6=46080 9=2 -23310=1,0.2
Concat                   Concat_809               5 1 1498_splitncnn_1 1500_splitncnn_0 1503_splitncnn_0 1506_splitncnn_0 1509 1510
Convolution              Conv_810                 1 1 1510 1511 0=64 1=3 4=1 5=1 6=110592
Eltwise                  Add_813                  2 1 1511 1498_splitncnn_0 1514 0=1 -23301=2,0.2,1.0
Eltwise                  Add_816                  2 1 1514 1466_splitncnn_0 1517 0=1 -23301=2,0.2,1.0
Split                    splitncnn_192            1 7 1517 1517_splitncnn_0 1517_splitncnn_1 1517_splitncnn_2 1517_splitncnn_3 1517_splitncnn_4 1517_splitncnn_5 1517_splitncnn_6
Convolution              Conv_817                 1 1 1517_splitncnn_6 1519 0=32 1=3 4=1 5=1 6=18432 9=2 -23310=1,0.2
Split                    splitncnn_193            1 4 1519 1519_splitncnn_0 1519_splitncnn_1 1519_splitncnn_2 1519_splitncnn_3
Concat                   Concat_819               2 1 1517_splitncnn_5 1519_splitncnn_3 1520
Convolution              Conv_820                 1 1 1520 1522 0=32 1=3 4=1 5=1 6=27648 9=2 -23310=1,0.2
Split                    splitncnn_194            1 3 1522 1522_splitncnn_0 1522_splitncnn_1 1522_splitncnn_2
Concat                   Concat_822               3 1 1517_splitncnn_4 1519_splitncnn_2 1522_splitncnn_2 1523
Convolution              Conv_823                 1 1 1523 1525 0=32 1=3 4=1 5=1 6=36864 9=2 -23310=1,0.2
Split                    splitncnn_195            1 2 1525 1525_splitncnn_0 1525_splitncnn_1
Concat                   Concat_825               4 1 1517_splitncnn_3 1519_splitncnn_1 1522_splitncnn_1 1525_splitncnn_1 1526
Convolution              Conv_826                 1 1 1526 1528 0=32 1=3 4=1 5=1 6=46080 9=2 -23310=1,0.2
Concat                   Concat_828               5 1 1517_splitncnn_2 1519_splitncnn_0 1522_splitncnn_0 1525_splitncnn_0 1528 1529
Convolution              Conv_829                 1 1 1529 1530 0=64 1=3 4=1 5=1 6=110592
Eltwise                  Add_832                  2 1 1530 1517_splitncnn_1 1533 0=1 -23301=2,0.2,1.0
Split                    splitncnn_196            1 6 1533 1533_splitncnn_0 1533_splitncnn_1 1533_splitncnn_2 1533_splitncnn_3 1533_splitncnn_4 1533_splitncnn_5
Convolution              Conv_833                 1 1 1533_splitncnn_5 1535 0=32 1=3 4=1 5=1 6=18432 9=2 -23310=1,0.2
Split                    splitncnn_197            1 4 1535 1535_splitncnn_0 1535_splitncnn_1 1535_splitncnn_2 1535_splitncnn_3
Concat                   Concat_835               2 1 1533_splitncnn_4 1535_splitncnn_3 1536
Convolution              Conv_836                 1 1 1536 1538 0=32 1=3 4=1 5=1 6=27648 9=2 -23310=1,0.2
Split                    splitncnn_198            1 3 1538 1538_splitncnn_0 1538_splitncnn_1 1538_splitncnn_2
Concat                   Concat_838               3 1 1533_splitncnn_3 1535_splitncnn_2 1538_splitncnn_2 1539
Convolution              Conv_839                 1 1 1539 1541 0=32 1=3 4=1 5=1 6=36864 9=2 -23310=1,0.2
Split                    splitncnn_199            1 2 1541 1541_splitncnn_0 1541_splitncnn_1
Concat                   Concat_841               4 1 1533_splitncnn_2 1535_splitncnn_1 1538_splitncnn_1 1541_splitncnn_1 1542
Convolution              Conv_842                 1 1 1542 1544 0=32 1=3 4=1 5=1 6=46080 9=2 -23310=1,0.2
Concat                   Concat_844               5 1 1533_splitncnn_1 1535_splitncnn_0 1538_splitncnn_0 1541_splitncnn_0 1544 1545
Convolution              Conv_845                 1 1 1545 1546 0=64 1=3 4=1 5=1 6=110592
Eltwise                  Add_848                  2 1 1546 1533_splitncnn_0 1549 0=1 -23301=2,0.2,1.0
Split                    splitncnn_200            1 6 1549 1549_splitncnn_0 1549_splitncnn_1 1549_splitncnn_2 1549_splitncnn_3 1549_splitncnn_4 1549_splitncnn_5
Convolution              Conv_849                 1 1 1549_splitncnn_5 1551 0=32 1=3 4=1 5=1 6=18432 9=2 -23310=1,0.2
Split                    splitncnn_201            1 4 1551 1551_splitncnn_0 1551_splitncnn_1 1551_splitncnn_2 1551_splitncnn_3
Concat                   Concat_851               2 1 1549_splitncnn_4 1551_splitncnn_3 1552
Convolution              Conv_852                 1 1 1552 1554 0=32 1=3 4=1 5=1 6=27648 9=2 -23310=1,0.2
Split                    splitncnn_202            1 3 1554 1554_splitncnn_0 1554_splitncnn_1 1554_splitncnn_2
Concat                   Concat_854               3 1 1549_splitncnn_3 1551_splitncnn_2 1554_splitncnn_2 1555
Convolution              Conv_855                 1 1 1555 1557 0=32 1=3 4=1 5=1 6=36864 9=2 -23310=1,0.2
Split                    splitncnn_203            1 2 1557 1557_splitncnn_0 1557_splitncnn_1
Concat                   Concat_857               4 1 1549_splitncnn_2 1551_splitncnn_1 1554_splitncnn_1 1557_splitncnn_1 1558
Convolution              Conv_858                 1 1 1558 1560 0=32 1=3 4=1 5=1 6=46080 9=2 -23310=1,0.2
Concat                   Concat_860               5 1 1549_splitncnn_1 1551_splitncnn_0 1554_splitncnn_0 1557_splitncnn_0 1560 1561
Convolution              Conv_861                 1 1 1561 1562 0=64 1=3 4=1 5=1 6=110592
Eltwise                  Add_864                  2 1 1562 1549_splitncnn_0 1565 0=1 -23301=2,0.2,1.0
Eltwise                  Add_867                  2 1 1565 1517_splitncnn_0 1568 0=1 -23301=2,0.2,1.0
Split                    splitncnn_204            1 7 1568 1568_splitncnn_0 1568_splitncnn_1 1568_splitncnn_2 1568_splitncnn_3 1568_splitncnn_4 1568_splitncnn_5 1568_splitncnn_6
Convolution              Conv_868                 1 1 1568_splitncnn_6 1570 0=32 1=3 4=1 5=1 6=18432 9=2 -23310=1,0.2
Split                    splitncnn_205            1 4 1570 1570_splitncnn_0 1570_splitncnn_1 1570_splitncnn_2 1570_splitncnn_3
Concat                   Concat_870               2 1 1568_splitncnn_5 1570_splitncnn_3 1571
Convolution              Conv_871                 1 1 1571 1573 0=32 1=3 4=1 5=1 6=27648 9=2 -23310=1,0.2
Split                    splitncnn_206            1 3 1573 1573_splitncnn_0 1573_splitncnn_1 1573_splitncnn_2
Concat                   Concat_873               3 1 1568_splitncnn_4 1570_splitncnn_2 1573_splitncnn_2 1574
Convolution              Conv_874                 1 1 1574 1576 0=32 1=3 4=1 5=1 6=36864 9=2 -23310=1,0.2
Split                    splitncnn_207            1 2 1576 1576_splitncnn_0 1576_splitncnn_1
Concat                   Concat_876               4 1 1568_splitncnn_3 1570_splitncnn_1 1573_splitncnn_1 1576_splitncnn_1 1577
Convolution              Conv_877                 1 1 1577 1579 0=32 1=3 4=1 5=1 6=46080 9=2 -23310=1,0.2
Concat                   Concat_879               5 1 1568_splitncnn_2 1570_splitncnn_0 1573_splitncnn_0 1576_splitncnn_0 1579 1580
Convolution              Conv_880                 1 1 1580 1581 0=64 1=3 4=1 5=1 6=110592
Eltwise                  Add_883                  2 1 1581 1568_splitncnn_1 1584 0=1 -23301=2,0.2,1.0
Split                    splitncnn_208            1 6 1584 1584_splitncnn_0 1584_splitncnn_1 1584_splitncnn_2 1584_splitncnn_3 1584_splitncnn_4 1584_splitncnn_5
Convolution              Conv_884                 1 1 1584_splitncnn_5 1586 0=32 1=3 4=1 5=1 6=18432 9=2 -23310=1,0.2
Split                    splitncnn_209            1 4 1586 1586_splitncnn_0 1586_splitncnn_1 1586_splitncnn_2 1586_splitncnn_3
Concat                   Concat_886               2 1 1584_splitncnn_4 1586_splitncnn_3 1587
Convolution              Conv_887                 1 1 1587 1589 0=32 1=3 4=1 5=1 6=27648 9=2 -23310=1,0.2
Split                    splitncnn_210            1 3 1589 1589_splitncnn_0 1589_splitncnn_1 1589_splitncnn_2
Concat                   Concat_889               3 1 1584_splitncnn_3 1586_splitncnn_2 1589_splitncnn_2 1590
Convolution              Conv_890                 1 1 1590 1592 0=32 1=3 4=1 5=1 6=36864 9=2 -23310=1,0.2
Split                    splitncnn_211            1 2 1592 1592_splitncnn_0 1592_splitncnn_1
Concat                   Concat_892               4 1 1584_splitncnn_2 1586_splitncnn_1 1589_splitncnn_1 1592_splitncnn_1 1593
Convolution              Conv_893                 1 1 1593 1595 0=32 1=3 4=1 5=1 6=46080 9=2 -23310=1,0.2
Concat                   Concat_895               5 1 1584_splitncnn_1 1586_splitncnn_0 1589_splitncnn_0 1592_splitncnn_0 1595 1596
Convolution              Conv_896                 1 1 1596 1597 0=64 1=3 4=1 5=1 6=110592
Eltwise                  Add_899                  2 1 1597 1584_splitncnn_0 1600 0=1 -23301=2,0.2,1.0
Split                    splitncnn_212            1 6 1600 1600_splitncnn_0 1600_splitncnn_1 1600_splitncnn_2 1600_splitncnn_3 1600_splitncnn_4 1600_splitncnn_5
Convolution              Conv_900                 1 1 1600_splitncnn_5 1602 0=32 1=3 4=1 5=1 6=18432 9=2 -23310=1,0.2
Split                    splitncnn_213            1 4 1602 1602_splitncnn_0 1602_splitncnn_1 1602_splitncnn_2 1602_splitncnn_3
Concat                   Concat_902               2 1 1600_splitncnn_4 1602_splitncnn_3 1603
Convolution              Conv_903                 1 1 1603 1605 0=32 1=3 4=1 5=1 6=27648 9=2 -23310=1,0.2
Split                    splitncnn_214            1 3 1605 1605_splitncnn_0 1605_splitncnn_1 1605_splitncnn_2
Concat                   Concat_905               3 1 1600_splitncnn_3 1602_splitncnn_2 1605_splitncnn_2 1606
Convolution              Conv_906                 1 1 1606 1608 0=32 1=3 4=1 5=1 6=36864 9=2 -23310=1,0.2
Split                    splitncnn_215            1 2 1608 1608_splitncnn_0 1608_splitncnn_1
Concat                   Concat_908               4 1 1600_splitncnn_2 1602_splitncnn_1 1605_splitncnn_1 1608_splitncnn_1 1609
Convolution              Conv_909                 1 1 1609 1611 0=32 1=3 4=1 5=1 6=46080 9=2 -23310=1,0.2
Concat                   Concat_911               5 1 1600_splitncnn_1 1602_splitncnn_0 1605_splitncnn_0 1608_splitncnn_0 1611 1612
Convolution              Conv_912                 1 1 1612 1613 0=64 1=3 4=1 5=1 6=110592
Eltwise                  Add_915                  2 1 1613 1600_splitncnn_0 1616 0=1 -23301=2,0.2,1.0
Eltwise                  Add_918                  2 1 1616 1568_splitncnn_0 1619 0=1 -23301=2,0.2,1.0
Split                    splitncnn_216            1 7 1619 1619_splitncnn_0 1619_splitncnn_1 1619_splitncnn_2 1619_splitncnn_3 1619_splitncnn_4 1619_splitncnn_5 1619_splitncnn_6
Convolution              Conv_919                 1 1 1619_splitncnn_6 1621 0=32 1=3 4=1 5=1 6=18432 9=2 -23310=1,0.2
Split                    splitncnn_217            1 4 1621 1621_splitncnn_0 1621_splitncnn_1 1621_splitncnn_2 1621_splitncnn_3
Concat                   Concat_921               2 1 1619_splitncnn_5 1621_splitncnn_3 1622
Convolution              Conv_922                 1 1 1622 1624 0=32 1=3 4=1 5=1 6=27648 9=2 -23310=1,0.2
Split                    splitncnn_218            1 3 1624 1624_splitncnn_0 1624_splitncnn_1 1624_splitncnn_2
Concat                   Concat_924               3 1 1619_splitncnn_4 1621_splitncnn_2 1624_splitncnn_2 1625
Convolution              Conv_925                 1 1 1625 1627 0=32 1=3 4=1 5=1 6=36864 9=2 -23310=1,0.2
Split                    splitncnn_219            1 2 1627 1627_splitncnn_0 1627_splitncnn_1
Concat                   Concat_927               4 1 1619_splitncnn_3 1621_splitncnn_1 1624_splitncnn_1 1627_splitncnn_1 1628
Convolution              Conv_928                 1 1 1628 1630 0=32 1=3 4=1 5=1 6=46080 9=2 -23310=1,0.2
Concat                   Concat_930               5 1 1619_splitncnn_2 1621_splitncnn_0 1624_splitncnn_0 1627_splitncnn_0 1630 1631
Convolution              Conv_931                 1 1 1631 1632 0=64 1=3 4=1 5=1 6=110592
Eltwise                  Add_934                  2 1 1632 1619_splitncnn_1 1635 0=1 -23301=2,0.2,1.0
Split                    splitncnn_220            1 6 1635 1635_splitncnn_0 1635_splitncnn_1 1635_splitncnn_2 1635_splitncnn_3 1635_splitncnn_4 1635_splitncnn_5
Convolution              Conv_935                 1 1 1635_splitncnn_5 1637 0=32 1=3 4=1 5=1 6=18432 9=2 -23310=1,0.2
Split                    splitncnn_221            1 4 1637 1637_splitncnn_0 1637_splitncnn_1 1637_splitncnn_2 1637_splitncnn_3
Concat                   Concat_937               2 1 1635_splitncnn_4 1637_splitncnn_3 1638
Convolution              Conv_938                 1 1 1638 1640 0=32 1=3 4=1 5=1 6=27648 9=2 -23310=1,0.2
Split                    splitncnn_222            1 3 1640 1640_splitncnn_0 1640_splitncnn_1 1640_splitncnn_2
Concat                   Concat_940               3 1 1635_splitncnn_3 1637_splitncnn_2 1640_splitncnn_2 1641
Convolution              Conv_941                 1 1 1641 1643 0=32 1=3 4=1 5=1 6=36864 9=2 -23310=1,0.2
Split                    splitncnn_223            1 2 1643 1643_splitncnn_0 1643_splitncnn_1
Concat                   Concat_943               4 1 1635_splitncnn_2 1637_splitncnn_1 1640_splitncnn_1 1643_splitncnn_1 1644
Convolution              Conv_944                 1 1 1644 1646 0=32 1=3 4=1 5=1 6=46080 9=2 -23310=1,0.2
Concat                   Concat_946               5 1 1635_splitncnn_1 1637_splitncnn_0 1640_splitncnn_0 1643_splitncnn_0 1646 1647
Convolution              Conv_947                 1 1 1647 1648 0=64 1=3 4=1 5=1 6=110592
Eltwise                  Add_950                  2 1 1648 1635_splitncnn_0 1651 0=1 -23301=2,0.2,1.0
Split                    splitncnn_224            1 6 1651 1651_splitncnn_0 1651_splitncnn_1 1651_splitncnn_2 1651_splitncnn_3 1651_splitncnn_4 1651_splitncnn_5
Convolution              Conv_951                 1 1 1651_splitncnn_5 1653 0=32 1=3 4=1 5=1 6=18432 9=2 -23310=1,0.2
Split                    splitncnn_225            1 4 1653 1653_splitncnn_0 1653_splitncnn_1 1653_splitncnn_2 1653_splitncnn_3
Concat                   Concat_953               2 1 1651_splitncnn_4 1653_splitncnn_3 1654
Convolution              Conv_954                 1 1 1654 1656 0=32 1=3 4=1 5=1 6=27648 9=2 -23310=1,0.2
Split                    splitncnn_226            1 3 1656 1656_splitncnn_0 1656_splitncnn_1 1656_splitncnn_2
Concat                   Concat_956               3 1 1651_splitncnn_3 1653_splitncnn_2 1656_splitncnn_2 1657
Convolution              Conv_957                 1 1 1657 1659 0=32 1=3 4=1 5=1 6=36864 9=2 -23310=1,0.2
Split                    splitncnn_227            1 2 1659 1659_splitncnn_0 1659_splitncnn_1
Concat                   Concat_959               4 1 1651_splitncnn_2 1653_splitncnn_1 1656_splitncnn_1 1659_splitncnn_1 1660
Convolution              Conv_960                 1 1 1660 1662 0=32 1=3 4=1 5=1 6=46080 9=2 -23310=1,0.2
Concat                   Concat_962               5 1 1651_splitncnn_1 1653_splitncnn_0 1656_splitncnn_0 1659_splitncnn_0 1662 1663
Convolution              Conv_963                 1 1 1663 1664 0=64 1=3 4=1 5=1 6=110592
Eltwise                  Add_966                  2 1 1664 1651_splitncnn_0 1667 0=1 -23301=2,0.2,1.0
Eltwise                  Add_969                  2 1 1667 1619_splitncnn_0 1670 0=1 -23301=2,0.2,1.0
Split                    splitncnn_228            1 7 1670 1670_splitncnn_0 1670_splitncnn_1 1670_splitncnn_2 1670_splitncnn_3 1670_splitncnn_4 1670_splitncnn_5 1670_splitncnn_6
Convolution              Conv_970                 1 1 1670_splitncnn_6 1672 0=32 1=3 4=1 5=1 6=18432 9=2 -23310=1,0.2
Split                    splitncnn_229            1 4 1672 1672_splitncnn_0 1672_splitncnn_1 1672_splitncnn_2 1672_splitncnn_3
Concat                   Concat_972               2 1 1670_splitncnn_5 1672_splitncnn_3 1673
Convolution              Conv_973                 1 1 1673 1675 0=32 1=3 4=1 5=1 6=27648 9=2 -23310=1,0.2
Split                    splitncnn_230            1 3 1675 1675_splitncnn_0 1675_splitncnn_1 1675_splitncnn_2
Concat                   Concat_975               3 1 1670_splitncnn_4 1672_splitncnn_2 1675_splitncnn_2 1676
Convolution              Conv_976                 1 1 1676 1678 0=32 1=3 4=1 5=1 6=36864 9=2 -23310=1,0.2
Split                    splitncnn_231            1 2 1678 1678_splitncnn_0 1678_splitncnn_1
Concat                   Concat_978               4 1 1670_splitncnn_3 1672_splitncnn_1 1675_splitncnn_1 1678_splitncnn_1 1679
Convolution              Conv_979                 1 1 1679 1681 0=32 1=3 4=1 5=1 6=46080 9=2 -23310=1,0.2
Concat                   Concat_981               5 1 1670_splitncnn_2 1672_splitncnn_0 1675_splitncnn_0 1678_splitncnn_0 1681 1682
Convolution              Conv_982                 1 1 1682 1683 0=64 1=3 4=1 5=1 6=110592
Eltwise                  Add_985                  2 1 1683 1670_splitncnn_1 1686 0=1 -23301=2,0.2,1.0
Split                    splitncnn_232            1 6 1686 1686_splitncnn_0 1686_splitncnn_1 1686_splitncnn_2 1686_splitncnn_3 1686_splitncnn_4 1686_splitncnn_5
Convolution              Conv_986                 1 1 1686_splitncnn_5 1688 0=32 1=3 4=1 5=1 6=18432 9=2 -23310=1,0.2
Split                    splitncnn_233            1 4 1688 1688_splitncnn_0 1688_splitncnn_1 1688_splitncnn_2 1688_splitncnn_3
Concat                   Concat_988               2 1 1686_splitncnn_4 1688_splitncnn_3 1689
Convolution              Conv_989                 1 1 1689 1691 0=32 1=3 4=1 5=1 6=27648 9=2 -23310=1,0.2
Split                    splitncnn_234            1 3 1691 1691_splitncnn_0 1691_splitncnn_1 1691_splitncnn_2
Concat                   Concat_991               3 1 1686_splitncnn_3 1688_splitncnn_2 1691_splitncnn_2 1692
Convolution              Conv_992                 1 1 1692 1694 0=32 1=3 4=1 5=1 6=36864 9=2 -23310=1,0.2
Split                    splitncnn_235            1 2 1694 1694_splitncnn_0 1694_splitncnn_1
Concat                   Concat_994               4 1 1686_splitncnn_2 1688_splitncnn_1 1691_splitncnn_1 1694_splitncnn_1 1695
Convolution              Conv_995                 1 1 1695 1697 0=32 1=3 4=1 5=1 6=46080 9=2 -23310=1,0.2
Concat                   Concat_997               5 1 1686_splitncnn_1 1688_splitncnn_0 1691_splitncnn_0 1694_splitncnn_0 1697 1698
Convolution              Conv_998                 1 1 1698 1699 0=64 1=3 4=1 5=1 6=110592
Eltwise                  Add_1001                 2 1 1699 1686_splitncnn_0 1702 0=1 -23301=2,0.2,1.0
Split                    splitncnn_236            1 6 1702 1702_splitncnn_0 1702_splitncnn_1 1702_splitncnn_2 1702_splitncnn_3 1702_splitncnn_4 1702_splitncnn_5
Convolution              Conv_1002                1 1 1702_splitncnn_5 1704 0=32 1=3 4=1 5=1 6=18432 9=2 -23310=1,0.2
Split                    splitncnn_237            1 4 1704 1704_splitncnn_0 1704_splitncnn_1 1704_splitncnn_2 1704_splitncnn_3
Concat                   Concat_1004              2 1 1702_splitncnn_4 1704_splitncnn_3 1705
Convolution              Conv_1005                1 1 1705 1707 0=32 1=3 4=1 5=1 6=27648 9=2 -23310=1,0.2
Split                    splitncnn_238            1 3 1707 1707_splitncnn_0 1707_splitncnn_1 1707_splitncnn_2
Concat                   Concat_1007              3 1 1702_splitncnn_3 1704_splitncnn_2 1707_splitncnn_2 1708
Convolution              Conv_1008                1 1 1708 1710 0=32 1=3 4=1 5=1 6=36864 9=2 -23310=1,0.2
Split                    splitncnn_239            1 2 1710 1710_splitncnn_0 1710_splitncnn_1
Concat                   Concat_1010              4 1 1702_splitncnn_2 1704_splitncnn_1 1707_splitncnn_1 1710_splitncnn_1 1711
Convolution              Conv_1011                1 1 1711 1713 0=32 1=3 4=1 5=1 6=46080 9=2 -23310=1,0.2
Concat                   Concat_1013              5 1 1702_splitncnn_1 1704_splitncnn_0 1707_splitncnn_0 1710_splitncnn_0 1713 1714
Convolution              Conv_1014                1 1 1714 1715 0=64 1=3 4=1 5=1 6=110592
Eltwise                  Add_1017                 2 1 1715 1702_splitncnn_0 1718 0=1 -23301=2,0.2,1.0
Eltwise                  Add_1020                 2 1 1718 1670_splitncnn_0 1721 0=1 -23301=2,0.2,1.0
Split                    splitncnn_240            1 7 1721 1721_splitncnn_0 1721_splitncnn_1 1721_splitncnn_2 1721_splitncnn_3 1721_splitncnn_4 1721_splitncnn_5 1721_splitncnn_6
Convolution              Conv_1021                1 1 1721_splitncnn_6 1723 0=32 1=3 4=1 5=1 6=18432 9=2 -23310=1,0.2
Split                    splitncnn_241            1 4 1723 1723_splitncnn_0 1723_splitncnn_1 1723_splitncnn_2 1723_splitncnn_3
Concat                   Concat_1023              2 1 1721_splitncnn_5 1723_splitncnn_3 1724
Convolution              Conv_1024                1 1 1724 1726 0=32 1=3 4=1 5=1 6=27648 9=2 -23310=1,0.2
Split                    splitncnn_242            1 3 1726 1726_splitncnn_0 1726_splitncnn_1 1726_splitncnn_2
Concat                   Concat_1026              3 1 1721_splitncnn_4 1723_splitncnn_2 1726_splitncnn_2 1727
Convolution              Conv_1027                1 1 1727 1729 0=32 1=3 4=1 5=1 6=36864 9=2 -23310=1,0.2
Split                    splitncnn_243            1 2 1729 1729_splitncnn_0 1729_splitncnn_1
Concat                   Concat_1029              4 1 1721_splitncnn_3 1723_splitncnn_1 1726_splitncnn_1 1729_splitncnn_1 1730
Convolution              Conv_1030                1 1 1730 1732 0=32 1=3 4=1 5=1 6=46080 9=2 -23310=1,0.2
Concat                   Concat_1032              5 1 1721_splitncnn_2 1723_splitncnn_0 1726_splitncnn_0 1729_splitncnn_0 1732 1733
Convolution              Conv_1033                1 1 1733 1734 0=64 1=3 4=1 5=1 6=110592
Eltwise                  Add_1036                 2 1 1734 1721_splitncnn_1 1737 0=1 -23301=2,0.2,1.0
Split                    splitncnn_244            1 6 1737 1737_splitncnn_0 1737_splitncnn_1 1737_splitncnn_2 1737_splitncnn_3 1737_splitncnn_4 1737_splitncnn_5
Convolution              Conv_1037                1 1 1737_splitncnn_5 1739 0=32 1=3 4=1 5=1 6=18432 9=2 -23310=1,0.2
Split                    splitncnn_245            1 4 1739 1739_splitncnn_0 1739_splitncnn_1 1739_splitncnn_2 1739_splitncnn_3
Concat                   Concat_1039              2 1 1737_splitncnn_4 1739_splitncnn_3 1740
Convolution              Conv_1040                1 1 1740 1742 0=32 1=3 4=1 5=1 6=27648 9=2 -23310=1,0.2
Split                    splitncnn_246            1 3 1742 1742_splitncnn_0 1742_splitncnn_1 1742_splitncnn_2
Concat                   Concat_1042              3 1 1737_splitncnn_3 1739_splitncnn_2 1742_splitncnn_2 1743
Convolution              Conv_1043                1 1 1743 1745 0=32 1=3 4=1 5=1 6=36864 9=2 -23310=1,0.2
Split                    splitncnn_247            1 2 1745 1745_splitncnn_0 1745_splitncnn_1
Concat                   Concat_1045              4 1 1737_splitncnn_2 1739_splitncnn_1 1742_splitncnn_1 1745_splitncnn_1 1746
Convolution              Conv_1046                1 1 1746 1748 0=32 1=3 4=1 5=1 6=46080 9=2 -23310=1,0.2
Concat                   Concat_1048              5 1 1737_splitncnn_1 1739_splitncnn_0 1742_splitncnn_0 1745_splitncnn_0 1748 1749
Convolution              Conv_1049                1 1 1749 1750 0=64 1=3 4=1 5=1 6=110592
Eltwise                  Add_1052                 2 1 1750 1737_splitncnn_0 1753 0=1 -23301=2,0.2,1.0
Split                    splitncnn_248            1 6 1753 1753_splitncnn_0 1753_splitncnn_1 1753_splitncnn_2 1753_splitncnn_3 1753_splitncnn_4 1753_splitncnn_5
Convolution              Conv_1053                1 1 1753_splitncnn_5 1755 0=32 1=3 4=1 5=1 6=18432 9=2 -23310=1,0.2
Split                    splitncnn_249            1 4 1755 1755_splitncnn_0 1755_splitncnn_1 1755_splitncnn_2 1755_splitncnn_3
Concat                   Concat_1055              2 1 1753_splitncnn_4 1755_splitncnn_3 1756
Convolution              Conv_1056                1 1 1756 1758 0=32 1=3 4=1 5=1 6=27648 9=2 -23310=1,0.2
Split                    splitncnn_250            1 3 1758 1758_splitncnn_0 1758_splitncnn_1 1758_splitncnn_2
Concat                   Concat_1058              3 1 1753_splitncnn_3 1755_splitncnn_2 1758_splitncnn_2 1759
Convolution              Conv_1059                1 1 1759 1761 0=32 1=3 4=1 5=1 6=36864 9=2 -23310=1,0.2
Split                    splitncnn_251            1 2 1761 1761_splitncnn_0 1761_splitncnn_1
Concat                   Concat_1061              4 1 1753_splitncnn_2 1755_splitncnn_1 1758_splitncnn_1 1761_splitncnn_1 1762
Convolution              Conv_1062                1 1 1762 1764 0=32 1=3 4=1 5=1 6=46080 9=2 -23310=1,0.2
Concat                   Concat_1064              5 1 1753_splitncnn_1 1755_splitncnn_0 1758_splitncnn_0 1761_splitncnn_0 1764 1765
Convolution              Conv_1065                1 1 1765 1766 0=64 1=3 4=1 5=1 6=110592
Eltwise                  Add_1068                 2 1 1766 1753_splitncnn_0 1769 0=1 -23301=2,0.2,1.0
Eltwise                  Add_1071                 2 1 1769 1721_splitncnn_0 1772 0=1 -23301=2,0.2,1.0
Split                    splitncnn_252            1 7 1772 1772_splitncnn_0 1772_splitncnn_1 1772_splitncnn_2 1772_splitncnn_3 1772_splitncnn_4 1772_splitncnn_5 1772_splitncnn_6
Convolution              Conv_1072                1 1 1772_splitncnn_6 1774 0=32 1=3 4=1 5=1 6=18432 9=2 -23310=1,0.2
Split                    splitncnn_253            1 4 1774 1774_splitncnn_0 1774_splitncnn_1 1774_splitncnn_2 1774_splitncnn_3
Concat                   Concat_1074              2 1 1772_splitncnn_5 1774_splitncnn_3 1775
Convolution              Conv_1075                1 1 1775 1777 0=32 1=3 4=1 5=1 6=27648 9=2 -23310=1,0.2
Split                    splitncnn_254            1 3 1777 1777_splitncnn_0 1777_splitncnn_1 1777_splitncnn_2
Concat                   Concat_1077              3 1 1772_splitncnn_4 1774_splitncnn_2 1777_splitncnn_2 1778
Convolution              Conv_1078                1 1 1778 1780 0=32 1=3 4=1 5=1 6=36864 9=2 -23310=1,0.2
Split                    splitncnn_255            1 2 1780 1780_splitncnn_0 1780_splitncnn_1
Concat                   Concat_1080              4 1 1772_splitncnn_3 1774_splitncnn_1 1777_splitncnn_1 1780_splitncnn_1 1781
Convolution              Conv_1081                1 1 1781 1783 0=32 1=3 4=1 5=1 6=46080 9=2 -23310=1,0.2
Concat                   Concat_1083              5 1 1772_splitncnn_2 1774_splitncnn_0 1777_splitncnn_0 1780_splitncnn_0 1783 1784
Convolution              Conv_1084                1 1 1784 1785 0=64 1=3 4=1 5=1 6=110592
Eltwise                  Add_1087                 2 1 1785 1772_splitncnn_1 1788 0=1 -23301=2,0.2,1.0
Split                    splitncnn_256            1 6 1788 1788_splitncnn_0 1788_splitncnn_1 1788_splitncnn_2 1788_splitncnn_3 1788_splitncnn_4 1788_splitncnn_5
Convolution              Conv_1088                1 1 1788_splitncnn_5 1790 0=32 1=3 4=1 5=1 6=18432 9=2 -23310=1,0.2
Split                    splitncnn_257            1 4 1790 1790_splitncnn_0 1790_splitncnn_1 1790_splitncnn_2 1790_splitncnn_3
Concat                   Concat_1090              2 1 1788_splitncnn_4 1790_splitncnn_3 1791
Convolution              Conv_1091                1 1 1791 1793 0=32 1=3 4=1 5=1 6=27648 9=2 -23310=1,0.2
Split                    splitncnn_258            1 3 1793 1793_splitncnn_0 1793_splitncnn_1 1793_splitncnn_2
Concat                   Concat_1093              3 1 1788_splitncnn_3 1790_splitncnn_2 1793_splitncnn_2 1794
Convolution              Conv_1094                1 1 1794 1796 0=32 1=3 4=1 5=1 6=36864 9=2 -23310=1,0.2
Split                    splitncnn_259            1 2 1796 1796_splitncnn_0 1796_splitncnn_1
Concat                   Concat_1096              4 1 1788_splitncnn_2 1790_splitncnn_1 1793_splitncnn_1 1796_splitncnn_1 1797
Convolution              Conv_1097                1 1 1797 1799 0=32 1=3 4=1 5=1 6=46080 9=2 -23310=1,0.2
Concat                   Concat_1099              5 1 1788_splitncnn_1 1790_splitncnn_0 1793_splitncnn_0 1796_splitncnn_0 1799 1800
Convolution              Conv_1100                1 1 1800 1801 0=64 1=3 4=1 5=1 6=110592
Eltwise                  Add_1103                 2 1 1801 1788_splitncnn_0 1804 0=1 -23301=2,0.2,1.0
Split                    splitncnn_260            1 6 1804 1804_splitncnn_0 1804_splitncnn_1 1804_splitncnn_2 1804_splitncnn_3 1804_splitncnn_4 1804_splitncnn_5
Convolution              Conv_1104                1 1 1804_splitncnn_5 1806 0=32 1=3 4=1 5=1 6=18432 9=2 -23310=1,0.2
Split                    splitncnn_261            1 4 1806 1806_splitncnn_0 1806_splitncnn_1 1806_splitncnn_2 1806_splitncnn_3
Concat                   Concat_1106              2 1 1804_splitncnn_4 1806_splitncnn_3 1807
Convolution              Conv_1107                1 1 1807 1809 0=32 1=3 4=1 5=1 6=27648 9=2 -23310=1,0.2
Split                    splitncnn_262            1 3 1809 1809_splitncnn_0 1809_splitncnn_1 1809_splitncnn_2
Concat                   Concat_1109              3 1 1804_splitncnn_3 1806_splitncnn_2 1809_splitncnn_2 1810
Convolution              Conv_1110                1 1 1810 1812 0=32 1=3 4=1 5=1 6=36864 9=2 -23310=1,0.2
Split                    splitncnn_263            1 2 1812 1812_splitncnn_0 1812_splitncnn_1
Concat                   Concat_1112              4 1 1804_splitncnn_2 1806_splitncnn_1 1809_splitncnn_1 1812_splitncnn_1 1813
Convolution              Conv_1113                1 1 1813 1815 0=32 1=3 4=1 5=1 6=46080 9=2 -23310=1,0.2
Concat                   Concat_1115              5 1 1804_splitncnn_1 1806_splitncnn_0 1809_splitncnn_0 1812_splitncnn_0 1815 1816
Convolution              Conv_1116                1 1 1816 1817 0=64 1=3 4=1 5=1 6=110592
Eltwise                  Add_1119                 2 1 1817 1804_splitncnn_0 1820 0=1 -23301=2,0.2,1.0
Eltwise                  Add_1122                 2 1 1820 1772_splitncnn_0 1823 0=1 -23301=2,0.2,1.0
Split                    splitncnn_264            1 7 1823 1823_splitncnn_0 1823_splitncnn_1 1823_splitncnn_2 1823_splitncnn_3 1823_splitncnn_4 1823_splitncnn_5 1823_splitncnn_6
Convolution              Conv_1123                1 1 1823_splitncnn_6 1825 0=32 1=3 4=1 5=1 6=18432 9=2 -23310=1,0.2
Split                    splitncnn_265            1 4 1825 1825_splitncnn_0 1825_splitncnn_1 1825_splitncnn_2 1825_splitncnn_3
Concat                   Concat_1125              2 1 1823_splitncnn_5 1825_splitncnn_3 1826
Convolution              Conv_1126                1 1 1826 1828 0=32 1=3 4=1 5=1 6=27648 9=2 -23310=1,0.2
Split                    splitncnn_266            1 3 1828 1828_splitncnn_0 1828_splitncnn_1 1828_splitncnn_2
Concat                   Concat_1128              3 1 1823_splitncnn_4 1825_splitncnn_2 1828_splitncnn_2 1829
Convolution              Conv_1129                1 1 1829 1831 0=32 1=3 4=1 5=1 6=36864 9=2 -23310=1,0.2
Split                    splitncnn_267            1 2 1831 1831_splitncnn_0 1831_splitncnn_1
Concat                   Concat_1131              4 1 1823_splitncnn_3 1825_splitncnn_1 1828_splitncnn_1 1831_splitncnn_1 1832
Convolution              Conv_1132                1 1 1832 1834 0=32 1=3 4=1 5=1 6=46080 9=2 -23310=1,0.2
Concat                   Concat_1134              5 1 1823_splitncnn_2 1825_splitncnn_0 1828_splitncnn_0 1831_splitncnn_0 1834 1835
Convolution              Conv_1135                1 1 1835 1836 0=64 1=3 4=1 5=1 6=110592
Eltwise                  Add_1138                 2 1 1836 1823_splitncnn_1 1839 0=1 -23301=2,0.2,1.0
Split                    splitncnn_268            1 6 1839 1839_splitncnn_0 1839_splitncnn_1 1839_splitncnn_2 1839_splitncnn_3 1839_splitncnn_4 1839_splitncnn_5
Convolution              Conv_1139                1 1 1839_splitncnn_5 1841 0=32 1=3 4=1 5=1 6=18432 9=2 -23310=1,0.2
Split                    splitncnn_269            1 4 1841 1841_splitncnn_0 1841_splitncnn_1 1841_splitncnn_2 1841_splitncnn_3
Concat                   Concat_1141              2 1 1839_splitncnn_4 1841_splitncnn_3 1842
Convolution              Conv_1142                1 1 1842 1844 0=32 1=3 4=1 5=1 6=27648 9=2 -23310=1,0.2
Split                    splitncnn_270            1 3 1844 1844_splitncnn_0 1844_splitncnn_1 1844_splitncnn_2
Concat                   Concat_1144              3 1 1839_splitncnn_3 1841_splitncnn_2 1844_splitncnn_2 1845
Convolution              Conv_1145                1 1 1845 1847 0=32 1=3 4=1 5=1 6=36864 9=2 -23310=1,0.2
Split                    splitncnn_271            1 2 1847 1847_splitncnn_0 1847_splitncnn_1
Concat                   Concat_1147              4 1 1839_splitncnn_2 1841_splitncnn_1 1844_splitncnn_1 1847_splitncnn_1 1848
Convolution              Conv_1148                1 1 1848 1850 0=32 1=3 4=1 5=1 6=46080 9=2 -23310=1,0.2
Concat                   Concat_1150              5 1 1839_splitncnn_1 1841_splitncnn_0 1844_splitncnn_0 1847_splitncnn_0 1850 1851
Convolution              Conv_1151                1 1 1851 1852 0=64 1=3 4=1 5=1 6=110592
Eltwise                  Add_1154                 2 1 1852 1839_splitncnn_0 1855 0=1 -23301=2,0.2,1.0
Split                    splitncnn_272            1 6 1855 1855_splitncnn_0 1855_splitncnn_1 1855_splitncnn_2 1855_splitncnn_3 1855_splitncnn_4 1855_splitncnn_5
Convolution              Conv_1155                1 1 1855_splitncnn_5 1857 0=32 1=3 4=1 5=1 6=18432 9=2 -23310=1,0.2
Split                    splitncnn_273            1 4 1857 1857_splitncnn_0 1857_splitncnn_1 1857_splitncnn_2 1857_splitncnn_3
Concat                   Concat_1157              2 1 1855_splitncnn_4 1857_splitncnn_3 1858
Convolution              Conv_1158                1 1 1858 1860 0=32 1=3 4=1 5=1 6=27648 9=2 -23310=1,0.2
Split                    splitncnn_274            1 3 1860 1860_splitncnn_0 1860_splitncnn_1 1860_splitncnn_2
Concat                   Concat_1160              3 1 1855_splitncnn_3 1857_splitncnn_2 1860_splitncnn_2 1861
Convolution              Conv_1161                1 1 1861 1863 0=32 1=3 4=1 5=1 6=36864 9=2 -23310=1,0.2
Split                    splitncnn_275            1 2 1863 1863_splitncnn_0 1863_splitncnn_1
Concat                   Concat_1163              4 1 1855_splitncnn_2 1857_splitncnn_1 1860_splitncnn_1 1863_splitncnn_1 1864
Convolution              Conv_1164                1 1 1864 1866 0=32 1=3 4=1 5=1 6=46080 9=2 -23310=1,0.2
Concat                   Concat_1166              5 1 1855_splitncnn_1 1857_splitncnn_0 1860_splitncnn_0 1863_splitncnn_0 1866 1867
Convolution              Conv_1167                1 1 1867 1868 0=64 1=3 4=1 5=1 6=110592
Eltwise                  Add_1170                 2 1 1868 1855_splitncnn_0 1871 0=1 -23301=2,0.2,1.0
Eltwise                  Add_1173                 2 1 1871 1823_splitncnn_0 1874 0=1 -23301=2,0.2,1.0
Convolution              Conv_1174                1 1 1874 1875 0=64 1=3 4=1 5=1 6=36864
BinaryOp                 Add_1175                 2 1 701_splitncnn_0 1875 1876
Interp                   Upsample_1176            1 1 1876 1885 0=1 1=2.0 2=2.0
Convolution              Conv_1177                1 1 1885 1887 0=64 1=3 4=1 5=1 6=36864 9=2 -23310=1,0.2
Convolution              Conv_1179                1 1 1887 1889 0=64 1=3 4=1 5=1 6=36864 9=2 -23310=1,0.2
Convolution              Conv_1181                1 1 1889 output 0=3 1=3 4=1 5=1 6=1728
